LunarLander/Reinforce/reinforce_lunar_lander_best.pth (torch, 6288 bytes, 6 tensors)

net.0.weight f4 [16, 8]
-0.10361347 -0.14592399 0.77930593 -0.5680827 -1.1227047 -0.15538217 -0.010641866 -0.18321265
-0.037843246 0.33213547 0.4493749 0.85484093 -0.6131276 -0.34570518 0.30483115 0.15318225
-0.010786092 0.12697496 0.51458234 0.29885724 -0.80762243 -0.68415576 0.073005654 -0.18097284
0.43624523 0.41321394 -0.4550043 0.5601079 0.10467488 0.0799899 -0.09752263 -0.01255903
0.35304356 0.2567196 0.77271104 -0.25124565 -0.9356762 -1.1388344 0.2265372 0.21494646
-0.35230047 -0.20870449 -0.3379308 -0.33552992 0.8806749 0.43184927 -0.19086275 -0.5123769
0.3059202 -0.07895544 0.67839223 -0.739425 -0.8282894 -0.5082924 -0.4583269 -0.07752643
0.15681762 -0.090191804 0.6256693 -0.29548338 -1.2687387 -0.9790189 -0.060539555 -0.27511492
0.13250732 -0.1908314 0.5755014 0.6355393 -0.47448304 -0.42167386 0.0309216 0.2541296
-0.096387684 0.005516892 0.62447464 -0.7238379 -0.6407243 -0.36758226 -0.04725885 0.07468637
-0.07358565 -0.06384136 -0.6098511 -0.45266828 0.76158506 0.48471594 -0.048400633 -0.25186577
-0.034025982 -0.43175867 -0.22006689 -0.5236374 -0.6136228 0.2673831 -0.24109975 -0.32826617
-0.19795826 0.53241146 -0.19802597 0.6423104 0.7377804 0.05271736 0.21627678 0.1657566
0.421063 0.42910734 0.22889729 0.64339083 -0.5357779 -0.73598814 0.12524192 0.04722053
0.026082385 -0.18254021 0.72702676 -0.36657795 -1.1907777 -0.9856801 -0.16201219 0.096229516
-0.18623504 -0.12702528 0.03614178 -0.7510501 0.21901113 -0.09650254 0.07021376 0.108771354
00000000: 4d33 d4bd 196d 15be 9880 473f de6d 11bf
00000010: cab4 8fbf 811c 1fbe 395b 2ebc 199c 3bbe
00000020: 8501 1bbd a90d aa3e 7814 e63e dbd6 5a3f
00000030: eef5 1cbf 4500 b1be d412 9c3e cfdb 1c3e
00000040: 26b8 30bc b905 023e abbb 033f d103 993e
00000050: 58c0 4ebf d524 2fbf fd83 953d f250 39be
00000060: 895b df3e c790 d33e 53f6 e8be 3b63 0f3f
00000070: c95f d63d bfd1 a33d f2b9 c7bd 64c4 4dbc
00000080: 20c2 b43e c070 833e 64d0 453f 45a3 80be
00000090: 7a88 6fbf 53c5 91bf 5ef9 673e ed1a 5c3e
000000a0: ba60 b4be a1b6 55be 4405 adbe 94ca abbe
000000b0: e973 613f 591b dd3e 8671 43be 222b 03bf
000000c0: 93a1 9c3e 64b3 a1bd 1dab 2d3f f54a 3dbf
000000d0: c60a 54bf 731f 02bf d3a9 eabe 2dc6 9ebd
000000e0: cc94 203e 7bb6 b8bd dd2b 203f 9949 97be
000000f0: 0866 a2bf fca0 7abf 53f8 77bd dddb 8cbe
00000100: 00b0 073e 4e69 43be 0f54 133f b4b2 223f
00000110: 71ef f2be a3e5 d7be 4c4f fd3c 461d 823e
00000120: e866 c5bd 0bc7 b43b 92dd 1f3f 714d 39bf
00000130: 8206 24bf be33 bcbe 7f92 41bd 2bf5 983d
00000140: 13b4 96bd 42bf 82bd 341f 1cbf 23c4 e7be
00000150: 3df7 423f b02c f83e be3f 46bd 8df4 80be
00000160: d45e 0bbd 790f ddbe 3759 61be 1a0d 06bf
00000170: 6216 1dbf 70e6 883e dae2 76be 8112 a8be
00000180: 92b5 4abe 1e4c 083f 52c7 4abe 746e 243f
00000190: 2ddf 3c3f 29ee 573d a977 5d3e 19bc 293e
000001a0: 9295 d73e f5b3 db3e 0d64 6a3e 43b5 243f
000001b0: be28 09bf b869 3cbf 6b3f 003e 516a 413d
000001c0: baaa d53c d2eb 3abe 6d1e 3a3f 1bb0 bbbe
000001d0: 676b 98bf 8855 7cbf 86e6 25be fb13 c53d
000001e0: 66b4 3ebe ea12 02be 6709 143d d244 40bf
000001f0: 7444 603e 20a3 c5bd 3bcc 8f3d 84c3 de3d

net.0.bias f4 [16]
-0.11164747 0.1331979 0.049300443 -0.009075968 -0.19782488 0.013736658 -0.047652967 -0.018005297
0.38567466 -0.20549661 -0.049300596 0.22385642 -0.20014557 -0.0012858729 0.09231109 -0.19654328
00000000: 6ea7 e4bd 0865 083e 43ef 493d 5eb3 14bc
00000010: 9b92 4abe b80f 613c c22f 43bd d87f 93bc
00000020: 2677 c53e b46d 52be 6cef 49bd 9e3a 653e
00000030: f6f2 4cbe bc8a a8ba 990d bd3d a442 49be

net.2.weight f4 [32, 16]
-0.40764534 -0.9746027 -0.40112558 0.038928106 -0.48485026 0.25134575 -0.113365225 -0.62429214
-0.3247043 -0.13412231 0.34075007 -0.066198595 0.041306127 -0.8102456 -0.61933583 0.17692111
-0.9358863 0.13765496 -0.23584281 0.16593948 -0.6357724 0.29621437 -0.37331432 -0.73549336
-0.19476475 -0.2611151 0.23354147 -0.09732608 0.55176336 0.050084252 -0.97665536 0.20110261
-0.28116757 -0.1456469 -0.30046737 0.2556434 -0.6292782 0.4257651 -0.059574928 -0.55495185
-0.22981477 -0.3251039 0.07743964 -0.3820847 0.14160293 -0.19197929 -0.9518789 0.056864925
-0.8721074 0.34817478 -0.3750808 0.39051428 -0.49412987 -0.030587088 -0.3751419 -0.81721586
-0.22847615 -0.3745284 0.031432778 -0.3657161 0.49686354 -0.020346316 -0.8325506 -0.13427736
-0.441255 0.734039 0.22449572 0.17584373 0.25935552 -0.049552787 -0.28093323 -0.14401457
0.25516453 -0.43080452 -0.0520118 -0.3170728 0.22740062 0.74014425 -0.0060889255 0.07754504
-0.010324975 -0.79820484 -0.036624655 0.05102397 -0.4498365 0.4623698 -0.16673239 -0.008506008
-0.30248487 -0.06553391 0.24465309 0.26518685 -0.06261258 -0.3397799 -0.18360327 -0.23384503
-0.11274156 0.55476207 0.09867085 -0.111416884 0.2916762 -0.38322183 0.14303389 0.057079453
0.428914 0.049508806 -0.01047964 -0.22527654 0.2903466 0.7049081 0.3224612 -0.15749039
-0.9598314 0.4518903 0.045335308 0.3269066 -0.29969826 -0.017725628 -0.16570431 -0.5246752
-0.0029404063 -0.52319974 0.017199786 -0.079180464 0.49628785 0.13390826 -0.52756715 -0.15617031
-0.21207184 -0.46771917 -0.18088855 0.034032926 -0.5192312 -0.061485603 -0.19265018 -0.65242624
-0.1650371 -0.27524814 0.39132383 -0.08796003 -0.12740688 -0.46405116 -0.54710674 0.356413
-0.86519116 -0.46024415 -0.37687013 -0.021285938 -0.6172455 0.31947204 -0.16309908 -0.4948887
-0.09225515 -0.17037931 0.0041271322 -0.016279895 0.46125087 -0.17003138 -1.1139771 -0.006923835
-0.19497494 0.022753157 0.09244281 0.2842119 0.08141405 -0.18878508 -0.13571177 -0.40248248
0.04210208 -0.3161861 0.26759005 -0.18056148 0.093995534 0.23047136 -0.512523 -0.22877125
0.33953953 1.0786065 0.35584703 0.20172971 0.55370784 -0.46323133 0.086963296 0.23903596
0.22912805 0.1464574 -0.38004634 0.09180967 -0.06829603 0.46941373 0.2823975 -0.19878644
0.6634482 0.60092515 0.6307001 0.22600877 0.49077234 -0.19338888 0.2081841 0.74550694
0.10607447 0.28069943 -0.38257498 0.04818622 0.015294712 0.62917906 0.551309 -0.33873755
-0.40474188 0.5453125 0.16585177 0.11115485 0.4225336 -0.38233688 -0.25701383 0.08680081
-0.023359394 -0.038488604 -0.15881176 -0.36412734 0.16547267 0.22337611 -0.23501526 -0.16393808
0.43477723 0.14016898 0.50245315 -0.25827655 0.54272604 0.0063420134 0.16955104 0.4133237
-0.19594474 0.35798186 -0.24705401 0.41984844 -0.28917876 -0.033575114 0.88380176 0.059752706
-0.47599134 -0.15984672 -0.85374665 0.0042774715 -0.5406681 0.35376713 -0.38378543 -0.81406784
-0.32065013 0.015538048 0.22258012 -0.069079034 0.24113804 -0.6855151 -0.5639842 0.007439397
00000000: e4b6 d0be 907f 79bf 5560 cdbe 1473 1f3d
00000010: 4b3e f8be 64b0 803e 072c e8bd 9cd1 1fbf
00000020: a43f a6be 5c57 09be cb76 ae3e 2193 87bd
00000030: 9d30 293d 416c 4fbf cb8c 1ebf cf2a 353e
00000040: 3f96 6fbf 6cf5 0c3e c780 71be 0aec 293e
00000050: fbc1 22bf 69a9 973e 0e23 bfbe 4b49 3cbf
00000060: 6970 47be e1b0 85be 7f25 6f3e e552 c7bd
00000070: 5d40 0d3f 2525 4d3d 1606 7abf d8ed 4d3e
00000080: 32f5 8fbe 7624 15be dcd6 99be b1e3 823e
00000090: 6018 21bf e2fd d93e d704 74bd 5311 0ebf
000000a0: 9054 6bbe 0574 a6be ad98 9e3d 9ba0 c3be
000000b0: 5c00 113e 3896 44be 56ae 73bf 32eb 683d
000000c0: 6e42 5fbf f743 b23e 970a c0be 7df1 c73e
000000d0: 97fe fcbe c691 fabc 9912 c0be 0f35 51bf
000000e0: a7f5 69be 30c2 bfbe a8bf 003d 243f bbbe
000000f0: e664 fe3e 51ad a6bc 0922 55bf 0180 09be
00000100: 2dec e1be fbe9 3b3f 35e2 653e 6110 343e
00000110: 3fca 843e ddf7 4abd 7bd6 8fbe 8e78 13be
00000120: eda4 823e 6992 dcbe 530a 55bd 5e57 a2be
00000130: b5db 683e 187a 3d3f 9c85 c7bb efcf 9e3d
00000140: 152a 29bc 2757 4cbf bc03 16bd 83fe 503d
00000150: f850 e6be bcbb ec3e e5bb 2abe c95c 0bbc
00000160: 4cdf 9abe a536 86bd 5786 7a3e 92c6 873e
00000170: 063b 80bd a2f7 adbe 7f02 3cbe 1275 6fbe
00000180: 0ce5 e6bd e304 0e3f f113 ca3d 892e e4bd
00000190: 9556 953e a735 c4be 7a77 123e 25cc 693d
000001a0: 9e9a db3e bfc9 4a3d ccb2 2bbc e5ae 66be
000001b0: 4fa8 943e db74 343f a219 a53e 2945 21be
000001c0: 83b7 75bf 2a5e e73e 84b1 393d 4d60 a73e
000001d0: 0d72 99be 5635 91bc 64ae 29be 1d51 06bf
000001e0: d5b3 40bb 6bf0 05bf 91e6 8c3c 5e29 a2bd
000001f0: 7119 fe3e 3f1f 093e a40e 07bf 1ceb 1fbe
00000200: 5c29 59be e378 efbe d93a 39be 1c66 0b3d
00000210: 56ec 04bf 54d8 7bbd 1746 45be 6805 27bf
00000220: 7cff 28be 53ed 8cbe 995b c83e 6324 b4bd
00000230: f376 02be 1d98 edbe 300f 0cbf c47b b63e
00000240: 2b7d 5dbf 1fa5 ebbe 1ff5 c0be d95f aebc
00000250: cd03 1ebf d791 a33e 7203 27be 0d62 fdbe
00000260: 45f0 bcbd ea77 2ebe e53c 873b 6a5d 85bc
00000270: 1329 ec3e b51c 2ebe cd96 8ebf 56e1 e2bb
00000280: 83a7 47be d464 ba3c a852 bd3d 3984 913e
00000290: 69bc a63d e050 41be 07f8 0abe 2f12 cebe
000002a0: 3b73 2c3d 25e3 a1be 9001 893e 1ce5 38be
000002b0: bb80 c03d af00 6c3e b534 03bf 0343 6abe
000002c0: 20d8 ad3e c70f 8a3f 9531 b63e 3c92 4e3e
000002d0: ccbf 0d3f a82c edbe d019 b23d d8c5 743e
000002e0: 8ba0 6a3e eef8 153e 6f95 c2be b506 bc3d
000002f0: cade 8bbd ff56 f03e 6896 903e ac8e 4bbe
00000300: bed7 293f 3bd6 193f 9075 213f d86e 673e
00000310: 8346 fb3e bc07 46be 362e 553e 8bd9 3e3f
00000320: 923d d93d d6b7 8f3e dee0 c3be ea5e 453d
00000330: ac96 7a3c e111 213f 9622 0d3f 026f adbe
00000340: 543a cfbe 9a99 0b3f 0cd5 293e 27a5 e33d
00000350: 5356 d83e a9c1 c3be 5197 83be a0c4 b13d
00000360: 335c bfbc 3aa6 1dbd 8d9f 22be e66e babe
00000370: ab71 293e b5bc 643e d7a7 70be 62df 27be
00000380: 1f9b de3e 7588 0f3e c5a0 003f d33c 84be
00000390: 18f0 0a3f aad0 cf3b ca9e 2d3e 2a9f d33e
000003a0: bda5 48be 6649 b73e bafb 7cbe 60f6 d63e
000003b0: 3d0f 94be 0f86 09bd d540 623f 41bf 743d
000003c0: 23b5 f3be dcae 23be 248f 5abf 082a 8c3b
000003d0: 3969 0abf f720 b53e 867f c4be c066 50bf
000003e0: 412c a4be 4c93 7e3c 0bec 633e 4f79 8dbd
000003f0: e4ec 763e eb7d 2fbf 4561 10bf 2fc6 f33b

net.2.bias f4 [32]
-0.016174592 -0.15523261 -0.04824632 0.13096821 -0.12046066 -0.06131261 0.102124035 0.056870483
-0.04283138 0.0028750582 0.08155623 0.05857204 0.17854069 0.21216552 -0.07683251 -0.12537217
-0.07312274 -0.08756256 0.04262961 0.19029304 0.09794373 -0.009763424 -0.21338023 -0.05734164
-0.028795471 -0.013955829 -0.15570034 -0.1226843 -0.010218066 0.08169979 -0.026877435 -0.096720114
00000000: 9480 84bc 4cf5 1ebe ef9d 45bd 881c 063e
00000010: 14b4 f6bd ee22 7bbd 6826 d13d 06f1 683d
00000020: f56f 2fbd 796b 3c3b f406 a73d 3ce9 6f3d
00000030: 5fd3 363e eb41 593e 5d5a 9dbd 9061 00be
00000040: 60c1 95bd 0054 b3bd 639c 2e3d 2edc 423e
00000050: b996 c83d c5f6 1fbc 5980 5abe 11df 6abd
00000060: 7be4 ebbc fda6 64bc e96f 1fbe e841 fbbd
00000070: ad69 27bc 3852 a73d 112e dcbc 3215 c6bd

net.4.weight f4 [4, 32]
-0.12889405 0.30301717 0.08673014 0.499241 0.59379846 -0.20223789 0.33575365 0.6191113
0.16705705 0.24371678 0.31909618 0.20995611 -0.22785619 0.46453226 -0.48248565 0.2907949
0.094771795 -0.31874567 0.4362567 0.011721688 -0.49891543 -0.46365336 -0.22767487 -0.61024296
-0.4595917 -0.30222684 -0.3905207 -0.44894305 0.373967 -0.52924204 0.2349488 -0.5947689
-0.8110294 -0.52584296 -0.4528623 -0.3972586 0.03334796 -0.1936873 0.3874448 -0.263375
-0.5487117 -0.77529234 -0.15326366 0.5261322 0.8631583 -0.031621277 0.4417635 -0.6403704
0.31580794 -0.633198 -0.19796185 0.5313268 -0.033507098 0.41524073 -0.6874337 0.2573284
0.02754263 -0.4137115 0.7362251 0.7218744 -0.15356919 0.5088584 0.6852512 0.4085496
0.256538 -0.3920923 -0.15865016 -0.3613691 -0.32957146 0.15902314 -0.21044827 -0.3654157
0.12549302 -0.14472832 -0.22882277 -0.23444888 -0.21431702 -0.22341059 0.20954876 0.11206855
-0.2629702 0.3080012 -0.25209492 -0.20148747 0.3135768 0.25823388 0.34062117 0.31699657
0.3316167 0.22807106 0.35400736 0.28604048 -0.28710404 0.35843632 -0.26737377 0.020438507
0.3373961 0.5863768 0.41494912 0.240274 -0.053343005 0.3024117 -0.294422 0.24880931
0.3387438 0.5971674 0.0510809 -0.26955318 -0.49608433 -0.16024132 -0.20478043 0.50915587
-0.31664422 0.49114725 0.12828077 -0.35508245 0.09799591 -0.25354668 0.40912372 -0.12190388
0.20065483 0.3267977 -0.33082286 -0.4903197 0.025804775 -0.57865494 -0.42914093 -0.24141099
00000000: cdfc 03be 1125 9b3e 929f b13d 849c ff3e
00000010: 2d03 183f 7317 4fbe e7e7 ab3e 147e 1e3f
00000020: 0111 2b3e e490 793e 9360 a33e bcfe 563e
00000030: 2253 69be 2cd7 ed3e 5c08 f7be 12e3 943e
00000040: b717 c23d a232 a3be 0a5d df3e 530c 403c
00000050: d871 ffbe f963 edbe 9a23 69be e238 1cbf
00000060: 9a4f ebbe 7abd 9abe 54f2 c7be dddb e5be
00000070: 9a78 bf3e 687c 07bf 6b96 703e c642 18bf
00000080: 9f9f 4fbf a59d 06bf 91dd e7be 7b65 cbbe
00000090: df97 083d f755 46be 2a5f c63e 17d9 86be
000000a0: 5f78 0cbf 8f79 46bf 26f1 1cbe 9ab0 063f
000000b0: f1f7 5c3f 5085 01bd d32e e23e 51ef 23bf
000000c0: 94b1 a13e 4419 22bf 83b6 4abe 0805 083f
000000d0: bd3e 09bd 6f9a d43e a8fb 2fbf 8cc0 833e
000000e0: 15a1 e13c fed1 d3be 4079 3c3f c3cc 383f
000000f0: 3e41 1dbe 8b44 023f 9f6c 2f3f 6a2d d13e
00000100: f358 833e 52c0 c8be 3075 22be 5f05 b9be
00000110: 97bd a8be f6d6 223e c07f 57be c417 bbbe
00000120: 3e81 003e a933 14be 8450 6abe 5e13 70be
00000130: ec75 5bbe bfc5 64be f393 563e 3284 e53d
00000140: 08a4 86be 55b2 9d3e 9612 81be bb52 4ebe
00000150: 238d a03e 3b37 843e e665 ae3e 604d a23e
00000160: aac9 a93e 768b 693e 7440 b53e e673 923e
00000170: 4dff 92be f784 b73e 37e5 88be a86e a73c
00000180: 2ebf ac3e ca1c 163f 3674 d43e 630a 763e
00000190: 327e 5abd b5d5 9a3e 7bbe 96be dec7 7e3e
000001a0: d46f ad3e f6df 183f 353a 513d e002 8abe
000001b0: c4fe fdbe 4d16 24be f6b1 51be 0a58 023f
000001c0: 311f a2be a777 fb3e 095c 033e 5ecd b5be
000001d0: 14b2 c83d dfd0 81be aa78 d13e bea8 f9bd
000001e0: 7678 4d3e 0752 a73e 9d61 a9be 2f0b fbbe
000001f0: 8964 d33c bb22 14bf 5cb8 dbbe 7134 77be

net.4.bias f4 [4]
0.09091845 0.15852322 0.028494516 -0.06757839
00000000: 7433 ba3d e953 223e 556d e93c 8a66 8abd
