LunarLander/Reinforce/reinforce_lunar_lander.pth (torch, 6238 bytes, 6 tensors)

net.0.weight f4 [16, 8]
0.20368905 0.23076853 0.33544204 0.7972191 -2.2618864 -0.70090705 -0.2791049 0.14671025
-0.16527896 -0.17148232 -0.21545534 -0.78325677 1.7524248 0.7852775 0.15016682 -0.21501487
0.037104532 0.726946 -0.3200057 0.78831 -0.4847323 0.3972157 0.12177418 0.6135755
0.38946933 -0.035310693 0.40238774 -0.11239188 -2.4347086 -0.70408684 -0.15900815 0.0019307974
0.5265726 -0.55890113 0.36933392 -0.56270146 -2.0525687 -1.0907508 -0.27502778 -0.18813731
-0.35979933 0.11891412 -0.13606507 -0.22605309 2.5362046 1.2971331 0.43009028 -0.053098835
-0.062033277 -0.7431564 0.15933773 -0.8950493 0.9957736 0.43048984 -0.22669953 -0.22406347
-0.50348157 0.2220723 -0.49243957 -0.41031387 2.511571 1.1102399 0.36126205 0.068268254
0.36943638 0.5362256 -0.12961824 0.8740278 -1.6272864 -0.5553148 0.07058448 -0.09902891
-0.54987526 -0.18561363 -0.16192152 -0.43120274 2.1655731 0.72623444 0.5644087 -0.15542544
-0.24281184 -0.25153458 -0.11836989 -0.45454857 1.7552509 0.8271405 -0.03990683 -0.044194523
0.2937737 -0.5869682 0.25271496 -0.46954674 -1.2629602 -1.2829137 -0.44882587 0.07689078
0.1261202 -0.4856774 0.39973152 -0.50712824 -1.6685443 -1.3587407 -0.3703615 -0.27128133
0.30356905 0.06739039 0.37124917 0.50308174 -1.539678 -0.866277 -0.51000684 -0.02850889
0.005545183 -0.43451908 -0.123611815 -0.49865943 0.9066981 0.14203122 -0.05658696 -0.2835666
0.2742373 -0.57439256 0.13573141 -0.1615853 -1.9864941 -1.2303743 0.0039240154 -0.45250627
00000000: dd93 503e 964e 6c3e 0fbf ab3e 8d16 4c3f
00000010: bfc2 10c0 a56e 33bf d6e6 8ebe 363b 163e
00000020: e33e 29be 1099 2fbe 53a0 5cbe 8483 48bf
00000030: 754f e03f f207 493f 55c5 193e dc2c 5cbe
00000040: ecfa 173d 2219 3a3f cad7 a3be afce 493f
00000050: d52e f8be db5f cb3e be64 f93d 4913 1d3f
00000060: 8668 c73e f2a1 10bd c405 ce3e b72d e6bd
00000070: 44d2 1bc0 093f 34bf 08d3 22be cf12 fd3a
00000080: 76cd 063f 2514 0fbf 5619 bd3e 340d 10bf
00000090: 495d 03c0 b99d 8bbf 71d0 8cbe 11a7 40be
000000a0: 9e37 b8be 3f89 f33d a454 0bbe 767a 67be
000000b0: 2d51 2240 7508 a63f cb34 dc3e 2a7e 59bd
000000c0: 9b16 7ebd 7f3f 3ebf 6e29 233e f321 65bf
000000d0: 05eb 7e3f 2a69 dc3e ec23 68be e570 65be
000000e0: 2be4 00bf ec66 633e 0a21 fcbe a914 d2be
000000f0: 94bd 2040 571c 8e3f 57f7 b83e 3ad0 8b3d
00000100: c426 bd3e 1546 093f a5ba 04be 49c0 5f3f
00000110: ec4a d0bf 1c29 0ebf 998e 903d abcf cabd
00000120: a0c4 0cbf 8011 3ebe c1ce 25be 9bc6 dcbe
00000130: c098 0a40 80ea 393f 177d 103f d927 1fbe
00000140: aba3 78be 24c9 80be ea6b f2bd 97ba e8be
00000150: 10ac e03f 7bbf 533f 5875 23bd 5105 35bd
00000160: 8269 963e 8c43 16bf db63 813e 6e68 f0be
00000170: aea8 a1bf 8436 a4bf 81cc e5be ea78 9d3d
00000180: a725 013e b5aa f8be 9ca9 cc3e 28d3 01bf
00000190: dc92 d5bf 37eb adbf 06a0 bdbe 63e5 8abe
000001a0: 676d 9b3e f903 8a3d 5f14 be3e f7c9 003f
000001b0: 2b14 c5bf 54c4 5dbf cf8f 02bf 7a8b e9bc
000001c0: 5eb4 b53b 4979 debe 3128 fdbd 4a50 ffbe
000001d0: 5e1d 683f a270 113e bac7 67bd a42f 91be
000001e0: d568 8c3e 640b 13bf 2dfd 0a3e 9e76 25be
000001f0: 7045 febf e87c 9dbf 0795 803b e7ae e7be

net.0.bias f4 [16]
0.11708887 -0.19374591 0.033376366 -0.35733116 -0.24040832 0.113286816 -0.0710239 -0.13440791
0.05811902 0.14005442 -0.011447288 -0.14633061 -0.24836062 0.14768368 -0.13900262 0.0044307974
00000000: 4acc ef3d 5465 46be a8b5 083d 1cf4 b6be
00000010: 992d 76be eb02 e83d fa74 91bd 3aa2 09be
00000020: 360e 6e3d 6d6a 0f3e 688d 3bbc b1d7 15be
00000030: 3f52 7ebe 643a 173e b456 0ebe 3930 913b

net.2.weight f4 [32, 16]
-0.33735728 0.06917218 0.37909493 -0.38138863 -1.0627028 0.6320697 -0.23537163 1.1027144
0.19961499 0.35042202 -0.14297976 -0.9009592 -0.89911145 -0.19878438 -0.110765904 -0.6628268
0.92053366 -0.3040906 0.33620396 0.5071707 -0.17484267 -0.28512514 -0.49386325 -0.16518547
0.8285474 -0.7055072 -0.3914683 -0.024425995 0.022045298 0.038259156 0.012722571 0.040809758
-0.9040624 0.35906368 -0.6006365 -0.17558537 0.4259612 0.065682285 0.9327672 0.11597839
-1.0076466 0.7494048 0.4661488 0.47092628 0.265562 -0.08585032 0.25972173 0.12638634
0.82071066 -0.27405846 -0.09491686 0.75094116 0.8007125 -0.805531 -0.2013189 -0.98779047
0.42116278 -0.7528582 -0.023000237 0.49122193 0.32767457 -0.032944612 0.15669188 0.62878084
0.42203525 -0.1674517 -0.41642118 0.8109731 1.3383645 -0.55432105 0.21215023 -0.99255264
-0.27466977 -0.14346525 -0.05420851 1.0514425 0.97547793 0.0432492 0.30546498 0.8145457
-0.50066805 0.51582545 0.15019983 -0.6833719 -0.7399089 1.0266798 -0.18387437 1.2111001
-0.27617133 0.60406035 -0.0035925452 -0.2856669 -0.68863034 -0.26072338 -0.21772823 -0.55056816
-0.629305 0.48004448 -0.5562503 -0.3184808 0.1649331 0.26161924 0.76676226 0.2855571
-1.1263709 0.6205668 0.025737405 0.38828328 0.34906536 0.1346587 0.19781378 0.18481584
-0.45337695 0.3101728 0.27892238 -0.45110002 -0.39420792 0.37703305 -0.12503982 0.7006093
-0.10663284 0.28388405 -0.0898935 -0.30112493 -0.08073155 -0.2017121 -0.060054705 -0.21313831
0.40987787 -0.27500635 -0.14540793 0.45129353 1.039731 -0.81491137 0.57998574 -0.9515558
0.1537667 -0.4572872 0.17393754 0.8533534 0.53471154 -0.13951059 0.10140015 0.3702597
0.029623918 0.10697146 -0.3212493 0.2202777 1.0806636 -0.36352614 0.8966459 -0.8609459
-0.753887 -0.22993696 0.45669273 0.9808032 0.78968096 0.20249249 0.04585048 0.43608612
-0.516945 0.3773751 0.2362408 -0.45681408 -0.90512186 0.44049442 0.10769739 1.0382223
-0.18430035 0.33429638 -0.46193314 -0.4764812 -0.4557439 -0.05011808 -0.3033535 -0.15207708
0.45328963 -0.2440611 0.069750704 0.48641494 0.83362675 -0.97820956 0.19729345 -1.2356211
0.22058211 -0.49003226 -0.095975906 0.5945999 0.51791143 -0.03681492 0.19645953 0.6283984
0.27601215 -0.11984503 -0.40486246 0.6247501 0.7695923 -0.50725734 0.5316864 -0.9695691
-0.6201614 -0.26174355 0.43636808 0.52943426 0.7383225 -0.033160873 0.24485284 0.70592517
-0.43904755 0.05113576 0.03567824 -0.66229177 -0.8741026 0.6248218 0.14108801 0.9721503
-0.23714873 0.6162707 -0.38771844 -0.27941334 -0.5672747 0.08876476 -0.24934523 -0.48231843
-0.57537663 0.5919751 -0.8161679 0.3671552 1.1163704 -0.052385278 0.85147834 -0.19499062
-0.980133 0.081393026 0.46964347 0.9391554 0.5877027 0.12458505 0.13171521 0.4453209
0.26430842 -0.39827117 -0.4089937 0.8244747 0.7360621 -0.63021076 0.2049051 -1.2716957
0.11896395 -0.5521246 0.010081702 0.5181828 0.58194506 0.1734103 0.2331686 0.7307514
00000000: 18ba acbe 25aa 8d3d bb18 c23e 5f45 c3be
00000010: a506 88bf 52cf 213f 4305 71be bf25 8d3f
00000020: df67 4c3e 846a b33e 4969 12be 43a5 66bf
00000030: 2b2c 66bf 228e 4bbe 3cd9 e2bd 04af 29bf
00000040: 18a8 6b3f c3b1 9bbe ed22 ac3e f0d5 013f
00000050: f509 33be ecfb 91be a5db fcbe 6126 29be
00000060: af1b 543f 1f9c 34bf 886e c8be 0619 c8bc
00000070: 5798 b43c a2b5 1c3d 5572 503c 2228 273d
00000080: a270 67bf 32d7 b73e 50c3 19bf a7cc 33be
00000090: 9617 da3e 6f84 863d d5c9 6e3f 1486 ed3d
000000a0: 90fa 80bf fed8 3f3f 0eab ee3e 401d f13e
000000b0: bef7 873e 4bd2 afbd 3ffa 843e 6c6b 013e
000000c0: 181a 523f 6451 8cbe c563 c2bd ae3d 403f
000000d0: 7ffb 4c3f 4837 4ebf 8b26 4ebe d6df 7cbf
000000e0: a6a2 d73e 51bb 40bf fe6a bcbc 7181 fb3e
000000f0: f6c4 a73e eef0 06bd d673 203e c8f7 203f
00000100: 0115 d83e 7578 2bbe 2835 d5be ef9b 4f3f
00000110: 874f ab3f fce7 0dbf e93d 593e ee17 7ebf
00000120: 84a1 8cbe 8ee8 12be be09 5ebd ab95 863f
00000130: ecb8 793f 1326 313d e865 9c3e 1186 503f
00000140: c82b 00bf 230d 043f fccd 193e 76f1 2ebf
00000150: ab6a 3dbf 3e6a 833f 9049 3cbe 5405 9b3f
00000160: 5466 8dbe b3a3 1a3f e870 6bbb ef42 92be
00000170: 144a 30bf 897d 85be 26f4 5ebe 09f2 0cbf
00000180: 221a 21bf 64c8 f53e 6b66 0ebf ea0f a3be
00000190: 39e4 283e f5f2 853e 884a 443f 8a34 923e
000001a0: ec2c 90bf 77dd 1e3f 40d7 d23c 11cd c63e
000001b0: b2b8 b23e f8e3 093e b28f 4a3e 5d40 3d3e
000001c0: 0621 e8be f8ce 9e3e eace 8e3e 95f6 e6be
000001d0: 9fd5 c9be 7a0a c13e 700a 00be 225b 333f
000001e0: 5262 dabd 4059 913e 151a b8bd 0c2d 9abe
000001f0: 9556 a5bd 9e8d 4ebe ecfb 75bd ee40 5abe
00000200: 83db d13e a2cd 8cbe d1e5 14be f20f e73e
00000210: e815 853f 089e 50bf f279 143f 2999 73bf
00000220: 0575 1d3e 8c21 eabe af1c 323e 5e75 5a3f
00000230: dbe2 083f dddb 0ebe e2aa cf3d ae92 bd3e
00000240: dcad f23c da13 db3d ca7a a4be 7a90 613e
00000250: 2f53 8a3f 1920 babe 968a 653f f366 5cbf
00000260: bdfe 40bf 9874 6bbe a1d3 e93e eb15 7b3f
00000270: 8828 4a3f 315a 4f3e b7cd 3b3d ae46 df3e
00000280: 8256 04bf 4f37 c13e 1ce9 713e 89e3 e9be
00000290: 11b6 67bf 7c88 e13e 7390 dc3d 78e4 843f
000002a0: 3bb9 3cbe e528 ab3e 8082 ecbe 58f5 f3be
000002b0: 4457 e9be 9e48 4dbd 2651 9bbe 18ba 1bbe
000002c0: 9415 e83e 27eb 79be 75d9 8e3d 610b f93e
000002d0: 9068 553f f16b 7abf 4b07 4a3e d528 9ebf
000002e0: 47e0 613e 82e5 fabe 048f c4bd b337 183f
000002f0: d895 043f 3ecb 16bd b02c 493e b8de 203f
00000300: 7751 8d3e 5071 f5bd 224a cfbe 9fef 1f3f
00000310: 0004 453f 9edb 01bf 9a1c 083f ae35 78bf
00000320: e6c2 1ebf 4003 86be a36b df3e 0189 073f
00000330: b402 3d3f b2d3 07bd b4ba 7a3e 83b7 343f
00000340: d7ca e0be bb73 513d 5923 123d f48b 29bf
00000350: 30c5 5fbf 52f4 1f3f 6079 103e d8de 783f
00000360: 1ed7 72be ebc3 1d3f 0883 c6be 440f 8fbe
00000370: ea38 11bf 4cca b53d 5b54 7fbe 71f2 f6be
00000380: e24b 13bf ae8b 173f 61f0 50bf c4fb bb3e
00000390: 3ae5 8e3f f291 56bd 7cfa 593f 9fab 47be
000003a0: ffe9 7abf 63b1 a63d 1c75 f03e 7d6c 703f
000003b0: af73 163f 7226 ff3d 5ae0 063e 1a01 e43e
000003c0: 6f53 873e 33ea cbbe 9f67 d1be c610 533f
000003d0: 916e 3c3f 7e55 21bf a4d2 513e edc6 a2bf
000003e0: 5fa3 f33d 0a58 0dbf b92d 253c a1a7 043f
000003f0: 5afa 143f 7892 313e c0c3 6e3e 8612 3b3f

net.2.bias f4 [32]
-0.047200173 -0.12000588 -0.16310179 -0.21188432 -0.14981179 -0.024329826 0.04501131 0.30455157
-0.1680675 0.04181288 -0.026797198 0.12326436 -0.07333725 0.2968311 -0.03004708 0.105779216
0.063591994 -0.10921466 0.21528155 -0.008882216 0.0793645 -0.09951956 0.009409781 0.05053937
0.0670442 -0.15548547 -0.0067213885 0.20690143 -0.09004949 -0.24186538 -0.13011084 0.17258286
00000000: f854 41bd a5c5 f5bd 2804 27be 34f8 58be
00000010: 4368 19be 584f c7bc c85d 383d 2fee 9b3e
00000020: e319 2cbe fc43 2b3d cc85 dbbc 0672 fc3d
00000030: d731 96bd 3ffa 973e 4b25 f6bc c6a2 d83d
00000040: 853c 823d f0ab dfbd c472 5c3e b786 11bc
00000050: db89 a23d e9d0 cbbd 7b2b 1a3c 5f02 4f3d
00000060: 784e 893d 9537 1fbe 183f dcbb f8dd 533e
00000070: de6b b8bd 8fab 77be c73b 05be 90b9 303e

net.4.weight f4 [4, 32]
0.48818606 0.4141637 0.06790223 0.502323 0.15301484 0.27306193 -0.23800783 -0.35669547
0.15043817 -0.26568052 0.3739266 -0.3218158 -0.044359483 -0.53552914 -0.09101564 -0.51673836
0.1086528 0.4312928 -0.3223558 0.09735198 -0.35390416 0.17733763 -0.23134682 -0.29591045
-0.21507472 0.1569693 0.14705598 -0.32571477 0.15614484 0.1704382 0.18211187 -0.419265
-0.7678416 0.06691439 -0.07545524 1.0879815 0.7933451 -1.0430299 0.09639254 -0.18073365
0.8565324 0.4314787 -0.41946432 0.78360116 0.34943518 -0.6233988 0.29022866 0.6568348
0.20868702 -0.91456866 -0.03119477 1.0748602 0.451443 1.0827515 0.14958656 0.33584237
0.3391221 0.2529902 -0.5863022 -0.2207621 -0.46458477 0.027623765 0.8271943 -0.63049054
-0.013672832 -0.5629639 0.7813611 -0.66239905 0.0126141105 0.40079686 0.6304927 0.17180127
-0.090216145 0.29891255 0.24593349 -0.1450701 0.06810054 0.33252734 0.51434934 -0.09872515
-0.5883626 0.13473539 -0.42213905 -0.80318385 -0.45729867 -0.6396464 0.5972642 0.40069336
0.3913968 0.36032197 -0.2531491 -0.62073696 -0.4624591 0.8791329 -0.4887489 0.34865755
0.9125796 0.23967464 -0.5131451 -0.5486989 -1.173354 0.65804386 -0.30766162 0.09523454
-0.6497521 -0.82867306 0.15534951 -0.22680108 -0.7525864 0.49273923 -0.7541445 -0.48594064
0.32277063 0.66456616 0.9548188 -0.48898083 -0.028244922 -0.49452776 -0.49450815 -0.79335016
-0.32366338 -1.0509254 1.0839878 1.1242464 1.001078 -0.79834855 -0.37672833 0.07328713
00000000: 86f3 f93e 440d d43e 5310 8b3d 3d98 003f
00000010: ecaf 1c3e c6ce 8b3e 53b8 73be caa0 b6be
00000020: 770c 1a3e 4707 88be 4f73 bf3e 0ac5 a4be
00000030: 4ab2 35bd 7018 09bf 6866 babd f748 04bf
00000040: 5c85 de3d 69d2 dc3e d20b a5be 7a60 c73d
00000050: ed32 b5be ff97 353e 2ee6 6cbe 9381 97be
00000060: 8c3c 5cbe 8fbc 203e d895 163e 16c4 a6be
00000070: 6fe4 1f3e 5a87 2e3e 897b 3a3e e7a9 d6be
00000080: 4491 44bf 690a 893d 4788 9abd fa42 8b3f
00000090: aa18 4b3f 0182 85bf 7469 c53d 3e12 39be
000000a0: b545 5b3f c7ea dc3e 07c4 d6be 169a 483f
000000b0: 2be9 b23e 1097 1fbf da98 943e 5326 283f
000000c0: 0db2 553e 2c21 6abf 2d8c ffbc 0595 893f
000000d0: 8923 e73e 9a97 8a3f 382d 193e 88f3 ab3e
000000e0: 69a1 ad3e ee87 813e e717 16bf 760f 62be
000000f0: 0ede edbe 3c4b e23c 01c3 533f d467 21bf
00000100: 0404 60bc 671e 10bf 4807 483f fc92 29bf
00000110: 6aab 4e3c 3f35 cd3e f867 213f acec 2f3e
00000120: 3ec3 b8bd 110b 993e fdd5 7b3e 428d 14be
00000130: 4c78 8b3d 0641 aa3e 66ac 033f 6930 cabd
00000140: ee9e 16bf 13f8 093e 9c22 d8be 759d 4dbf
00000150: 0d23 eabe debf 23bf 4ee6 183f ae27 cd3e
00000160: 2965 c83e 1f7c b83e c29c 81be 9ee8 1ebf
00000170: 70c7 ecbe db0e 613f 4c3d fabe 3e83 b23e
00000180: d19e 693f 456d 753e 7a5d 03bf 8877 0cbf
00000190: 7730 96bf 9075 283f d385 9dbe 540a c33d
000001a0: 2756 26bf eb23 54bf f113 1f3e 8b3e 68be
000001b0: 81a9 40bf 5148 fc3e 9d0f 41bf 36cd f8be
000001c0: 3142 a53e 0221 2a3f 016f 743f b25b fabe
000001d0: e561 e7bc be32 fdbe 2c30 fdbe ff18 4bbf
000001e0: 35b7 a5be b984 86bf 1dc0 8a3f 4ee7 8f3f
000001f0: 5323 803f 9260 4cbf 89e2 c0be 9017 963d

net.4.bias f4 [4]
-0.8361864 0.039076276 0.24782062 0.2979016
00000000: 5010 56bf 720e 203d b0c4 7d3e 8f86 983e
