ActorCritic/Acrobot-v1_actor_critic_model_5.pth (torch, 8632 bytes, 5 tensors)

affine1.weight f4 [128, 6]
00000000: 137c 18be 2132 c8be 7a07 543e 96f8 263e
00000010: eb9b 82be ee9f 613e 6869 6b3e 8a32 173e
00000020: 0433 9f3e 8507 a8bb 4f12 1fbd 12e9 a7be
00000030: c705 d8bd 2936 d43e 1b60 86be 3057 473e
00000040: 460e 1ebe 5a29 d53e 10be 0dbd ba45 a1bd
00000050: 96c0 1abe 56b6 883e ec7b 3ebe 55ae b53c
00000060: 7cc1 a2be 8328 cf3e 18b6 99be 7a6a bfbc
00000070: 232b c3bd 1460 87bd c219 c8be 7857 d93d
00000080: a41e 91bc 8077 7fbe 2187 943e 53ab 4e3e
00000090: aad7 643e f8f0 b7be 1e1d 983e 5afa 96be
000000a0: 312d 5bbe fadf a13e 3ef8 35be 0c70 97be
000000b0: 4d7a 8cbe b21d 4cbe 282e 0f3e 7e82 4a3d
000000c0: 708b 6abd 08bf 6ebc 8ea3 99be a538 9fbe
000000d0: f7da 6fbe 1c66 2bbc 6a2b 81be 0f0b 863e
000000e0: 5696 433e b8d9 9b3e 01b8 7cbe 36ef b53e
000000f0: 5150 2c3e 12e9 423e 3592 0f3e 9221 75bd
00000100: 5258 74be 10d4 c0bd 4d79 ac3e c4ee 2fbe
00000110: 130a c7be 5c6a 80be 90af bd3e 5495 18bd
00000120: 6b33 713d 1685 d3be 944c 2e3e 05b4 0e3e
00000130: de5d 02bd 6f32 403e 0ae8 a13d 3f82 6ebe
00000140: 7987 883e 9ea8 8f3d dec5 47be d3a3 0f3e
00000150: 4f7a e6be 2bf5 703e 6306 a3be 7eb7 2c3e
00000160: f57e 2f3d 642d 1c3e a857 8a3e 9cdc 093e
00000170: 136e 393e 3622 033d c6fe d9be b6e8 9dbe
00000180: 7040 fd3d 15b9 7a3c 558d a2be 331b 75be
00000190: a5ad 8ebe da1c afbd b5d5 da3e b4f7 19be
000001a0: 73e9 9d3e 33cd 63be a724 8abd 9f20 763e
000001b0: f932 5cbe cd5a c5be ed8d d1be 1afa f0bd
000001c0: eb7b 183e 4a0c 413d 3054 cebe c7e2 6cbe
000001d0: 3b8f a7bd be44 90be 25f8 afbe 88a7 0ebe
000001e0: 1e18 163e fc7a 803e 7b3b 5f3e 0361 f8be
000001f0: 7412 3ebd 63e0 8cbe eaa8 013e 9b20 f43d
00000200: ff76 c2be 7e01 a1bc 3d2e d6be 535a cabc
00000210: 89f3 1ebd 680d a43d 0bf7 1dbe b958 793e
00000220: b8ed af3e 700f fc3d 4c78 533e 8546 983d
00000230: 24b1 383e 0a57 78bd 39ed b93c c09f cf3b
00000240: 30cc 21bb 1040 cabc 5b83 ca3e 34a9 073d
00000250: b1b4 80bd bc4f 5f3e f96f 903e 6dea 683e
00000260: c752 83bc 3dfa f7bc c32a 2c3d 00c9 cd3d
00000270: 7393 50be 91e7 ce3e c009 9d3d a951 24be
00000280: 667c d83d d702 2dbe 8903 913e 26fe aebe
00000290: b765 e93d a25e 653d b776 c7be 70c0 d6bd
000002a0: 44c0 243e d5e1 9dbe bebd 5abe 49c6 a13e
000002b0: f16e abbe 9883 8c3d 9e1c 7fbe 34b9 13bd
000002c0: 2f06 9fbe 75e1 a1be e012 81be e031 48be
000002d0: eae7 b1bd d4d7 193e 9fd0 c63d 3143 493c
000002e0: 8bb7 963e bd6b 033e 2575 50be 4983 b4be
000002f0: ed05 e7be 934c 96be 48db 86be 4682 01be
00000300: 9559 023e 22a1 e93e 8f74 81be a18d ebbd
00000310: a585 2c3e 8b67 c0be 0f00 1abc 0d1d 913d
00000320: 6dcb 2dbe 5c3d 8c3e 90bf 423e d27f 5e3e
00000330: fa21 683e a1d5 213e 4852 97bd 0fdc a23e
00000340: e4ce babb 4ecc 853d cb92 113e 4c82 afbd
00000350: e2b8 2ebe c485 70bc e40c a2be 304f fc3c
00000360: 5474 133e 2121 67be eff2 d13d ba8f 74be
00000370: 63a5 babe 7344 773e efda 81be 3262 c6be
00000380: 69d7 dc3c e43f 66be a283 e6be 81be 8abe
00000390: 57f3 1cbe 598e f5bc 9fe3 e4bd 09d7 9e3e
000003a0: 1289 8f3e 3819 92be 5a50 88be 53dd 18be
000003b0: bb5a 353d 25bd 50be 58d3 87be 8e40 cb3c
000003c0: 82dd 64bd 0652 18bd 4956 a03e 6e70 843d
000003d0: e3b9 8d3e 6bb4 a03e e79f 02bd eaa1 923e
000003e0: e9c2 2abe 7885 edbd dcf0 c73e 451a 423e
000003f0: d4c4 6e3e 9f92 82bc d6df 1e3e b233 96bd
-0.1489108 -0.39100745 0.20705977 0.16305766 -0.2550958 0.22033665 0.22989428 0.14765373
0.3109361 -0.0051278495 -0.03883582 -0.32795006 -0.10547977 0.4144757 -0.26245198 0.19466853
-0.15435132 0.4163311 -0.034605086 -0.078746274 -0.15112528 0.2670161 -0.1860196 0.022177855
-0.31788242 0.40460595 -0.3002174 -0.023366202 -0.09529712 -0.06610122 -0.39082152 0.106123865
-0.017714806 -0.2494793 0.29009345 0.20182543 0.22347894 -0.35926032 0.29709715 -0.29487878
-0.21403958 0.31616193 -0.17770478 -0.29577672 -0.27437058 -0.19933203 0.13982451 0.049440853
-0.057261884 -0.014571913 -0.30007595 -0.31097904 -0.23423372 -0.0104613565 -0.25228435 0.26180312
0.19100317 0.30439544 -0.24679567 0.35534066 0.16827513 0.19034222 0.14020617 -0.05984647
-0.23861817 -0.09415448 0.33686295 -0.17180926 -0.38874874 -0.25081146 0.37048006 -0.037251785
0.058886927 -0.41312474 0.170214 0.1393586 -0.0318278 0.18769239 0.07905586 -0.23291872
0.26665857 0.07014583 -0.19509074 0.14027338 -0.4501519 0.23531024 -0.3184081 0.16866872
0.042845685 0.1525169 0.2702 0.13463062 0.18108396 0.032015048 -0.4257719 -0.30841607
0.12365806 0.015302916 -0.31748453 -0.23936157 -0.27866855 -0.08550425 0.4274117 -0.15035897
0.3084217 -0.22246246 -0.06745272 0.24035881 -0.2150382 -0.38545838 -0.40928593 -0.11766453
0.14891021 0.04713086 -0.40298605 -0.23133384 -0.08181616 -0.28177446 -0.34369007 -0.13931096
0.14657637 0.2509383 0.21800034 -0.48511514 -0.046404317 -0.27514943 0.12662092 0.119202815
-0.37981412 -0.019654032 -0.41832152 -0.024701273 -0.038806472 0.080103695 -0.1542627 0.24350251
0.34361053 0.12307632 0.20651358 0.074353255 0.18036324 -0.060629882 0.022696124 0.0063361824
-0.0024688356 -0.02468875 0.3955334 0.03312035 -0.06284464 0.2180776 0.28210428 0.22745676
-0.016030682 -0.03027069 0.04203297 0.10048103 -0.20368747 0.40411046 0.07667875 -0.16046776
0.10570602 -0.16895615 0.2832301 -0.34178275 0.11396354 0.055998452 -0.3895776 -0.10485923
0.16088969 -0.3083636 -0.21361443 0.31596592 -0.3348308 0.06861037 -0.2491326 -0.036065295
-0.31059405 -0.31617323 -0.25209713 -0.19550276 -0.08686812 0.15023738 0.0970776 0.012284086
0.29436907 0.12834068 -0.20357187 -0.35256413 -0.4512171 -0.29355296 -0.26339173 -0.12647352
0.12729485 0.45630747 -0.2528424 -0.11501623 0.16847856 -0.37578997 -0.009399428 0.07085619
-0.16972132 0.27390563 0.19018388 0.21728447 0.22669211 0.15804149 -0.07388741 0.31808516
-0.005700933 0.06533109 0.14216153 -0.08569774 -0.17062715 -0.01468033 -0.3165046 0.030799478
0.14399844 -0.22571231 0.10251414 -0.23882952 -0.36454305 0.24147205 -0.25362346 -0.38746792
0.026958184 -0.2248531 -0.45022303 -0.27098468 -0.15327202 -0.029975103 -0.11176228 0.31023434
0.28034264 -0.28534865 -0.26623803 -0.14928178 0.04427598 -0.20384653 -0.2652843 0.024811056
-0.05587531 -0.0371876 0.3131583 0.06466757 0.27680883 0.31387648 -0.031890776 0.28639156
-0.16675915 -0.11597723 0.3905095 0.18955334 0.23317271 -0.015939055 0.15515074 -0.07334079

affine1.bias f4 [128]
00000000: 54f4 6a3e 8219 f13b 3964 a03e 5367 9abe
00000010: 147d 20bd 9314 debe f4dd 033e fec9 56be
00000020: a509 783e 31e1 40be 4da8 babe b308 123e
00000030: 0df7 d4be 5c6d 44be 1397 5dbe 19bf 893e
00000040: 4018 003e ed87 51be 4e64 bf3e ebd0 413e
00000050: 3a72 4b3d 04ce 8a3e 211d b1be 93e5 bcbe
00000060: 386e 123e 5d24 f53c 570d c3be 934b 43be
00000070: 4c11 b9bd ef3c f6bd a983 6fbe 39dc 90be
00000080: 5c80 803d 9cc4 963d be42 743d 3e76 2b3e
00000090: dc8b bfbd d85f b5be 949e c6be 02ff 2f3e
000000a0: 0aab a13e 8e91 fb3e 8b26 c6be 6012 92ba
000000b0: d488 b13d 15b8 d3be be67 0a3e 43db 973e
000000c0: aede 8fbe 5a87 bcbe bfdd 26be 26f4 a6bd
000000d0: 6e32 b63d 1326 a73d 7397 21be d5b5 883e
000000e0: c2c2 5abe c4ad 5c3e 15eb 8a3e 0af9 5dbe
000000f0: bf58 b03e 17c9 d3bc 2d88 a8bd f3b1 723e
00000100: 6809 dcbd 2191 823e 405b ccbe 2afc 0dbe
00000110: c7ef 113d 3313 9dbe 733a c23e fc26 99be
00000120: 7e32 78be b876 d3be ef80 363e 30f2 3f3e
00000130: ff53 5dbe d68d 3c3e c173 42be fdd2 d2be
00000140: 7bed 9f3e fbc2 983e c03c d4bd a626 c43e
00000150: d40c 1fbd c7b8 09be 0650 3fbe 1490 9c3e
00000160: 2c6f 81be 33a8 55bd 9320 f3bd def8 10be
00000170: edda b3bd 30e8 82bd af82 ac3e 308e ee3d
00000180: 8cca b1be b745 a43e bef1 66be fdf7 9fbe
00000190: 9561 093e 3c14 2dbd 48e9 95bd 16e6 aebc
000001a0: 1509 72be b2b8 39be 59e9 21be 7c01 abbd
000001b0: 399b 453d 77a4 8d3e 8357 cebe e452 60bc
000001c0: 19dd b6be f4e0 86bd a5ee c4bd 89a3 d23d
000001d0: e740 e13c 9ce8 a5be 5593 923d d8a8 3f3d
000001e0: c5e4 723e d65f a7be bb3c 103d dd58 43be
000001f0: eae1 0fbe 96c7 a73e f728 ab3d 27d7 b03e
0.22944766 0.007357777 0.31326464 -0.30156955 -0.039181784 -0.43375072 0.12877637 -0.20975491
0.24222429 -0.18835904 -0.36456528 0.14261131 -0.41594735 -0.19182342 -0.21639661 0.26903608
0.1250925 -0.20462008 0.37381214 0.18927352 0.04966948 0.27110302 -0.34592536 -0.368939
0.14299858 0.029924566 -0.38096115 -0.19071798 -0.09036502 -0.12023341 -0.23390068 -0.28293017
0.062744826 0.07361719 0.059633963 0.16744325 -0.09352848 -0.35424685 -0.3879286 0.17187122
0.31575805 0.49134487 -0.3870128 -0.0011144392 0.08668676 -0.4135138 0.13516137 0.2965947
-0.2809958 -0.36822015 -0.16295527 -0.08152036 0.088963374 0.08161559 -0.1578043 0.26701227
-0.21363357 0.21550661 0.27132478 -0.21677032 0.34442708 -0.025852723 -0.082290985 0.23700695
-0.107439816 0.2550135 -0.39913368 -0.13865724 0.03562906 -0.3067871 0.37935218 -0.29912555
-0.24238011 -0.41301513 0.17822622 0.18744731 -0.21614073 0.18413481 -0.18989469 -0.41176596
0.3123587 0.29836258 -0.1036315 0.38310736 -0.038830593 -0.13449393 -0.1868287 0.30578673
-0.2528013 -0.05216236 -0.118714474 -0.14157435 -0.08781991 -0.063919425 0.33693454 0.11648214
-0.34724844 0.32084438 -0.22553155 -0.31243888 0.13416131 -0.042255625 -0.073198855 -0.021349948
-0.23636277 -0.18136862 -0.15811671 -0.083498925 0.048243735 0.2766454 -0.4030114 -0.013691638
-0.3571556 -0.06585875 -0.0961583 0.10285098 0.027496768 -0.3240403 0.071570076 0.04679188
0.23720081 -0.32690305 0.035214167 -0.19076867 -0.14051023 0.3276946 0.08357423 0.34539148

action_head.weight f4 [3, 128]
00000000: 1f75 67bc 51cb ddbd 1e34 8fbd b5dd e3bd
00000010: 21d1 07be 54d6 f43d 6fb1 2cbe 9666 bdbd
00000020: c655 37be 018e 84bd b67a 253d 0622 eebd
00000030: 4fb5 673c f0e3 27bd 8f31 84bd 1506 25bd
00000040: bc90 573d 12e2 3fbe 256d 98bd 7397 e4bd
00000050: 625a 69bd b354 2ebe 7881 b53c e4af a83c
00000060: ebcc d4bd 2d34 03be 681e 47be 2b16 36be
00000070: d2c8 13bd be55 03be c03c 81bc 3c0b fb3b
00000080: 8fc2 7abd 01ea 9bbd c07d 06be ce85 b8bd
00000090: c1a1 02be 2c35 b33b 00ab c9bd 0153 cebc
000000a0: e4b8 98bd 7478 2ebe dcfc 9d3b 61dd debd
000000b0: 78a1 c3bb ad32 8fbd 38cd 35be 9251 31be
000000c0: 0028 b8bd 5c18 843c 551a 253d accb 09bd
000000d0: 5fdd 0ebe ba2c 8ebd 55ea e4bc 949b f1bd
000000e0: f47a 75bd 0287 363d a610 3ebd d863 38bd
000000f0: dcf6 29bd c6f4 a53d 7899 96bd 5458 ebbc
00000100: c6b5 3cbe 8867 87bd 2c69 a8bd 0119 d1bd
00000110: ca84 09be 485b 36bb 743c 0bbe 0404 b4bd
00000120: 6654 173e 3cd9 5dbc 479b 16be ce9b 3ebe
00000130: c860 96bd e866 9abc d06f 83bd b4e8 cdbb
00000140: b86e cebd eb6e 2dbe db00 89bd 2690 e2bd
00000150: 16d1 f5bc ccfe 06bd ff63 29be 8029 1bbe
00000160: aac9 14bd b8c8 0bbe b6d1 17bc 9d0c 91bd
00000170: c134 173e 4b88 abbd 97a4 92bd 1c24 adbc
00000180: e035 ab3a bffc 0ebe 7707 33bd 0cfa 36bd
00000190: a83f f9bd 033b a2bd 1437 c2bd 5224 44bd
000001a0: f536 84bd edce 2d3d e940 2ebe d400 4fbd
000001b0: 6957 f2bd df4b 3fbe 1aef bd3c c622 32bd
000001c0: e72b bcbd d041 4b3a e855 ddbd fb2b dc3c
000001d0: aa4f 02bd dfd3 143d f0c0 4ebb 671e ebbd
000001e0: 3e7b 88bd d762 0abd 38b3 57be f4ee bcbd
000001f0: 32b4 e13c 89e0 b1bd 80b5 8abd 8525 6abc
00000200: 3c6a 533e 17e7 e63d abb2 4c3e ae8a 443e
00000210: fbd6 db3d af1e 53bd bc46 ae3d 4231 d23c
00000220: 97d1 c23d dee1 cc3d bea7 e63c f92d 423e
00000230: b47d 203e 3cee 0d3e 647f 953c d269 2e3e
00000240: 9658 763d 70f3 fa3d fcbc c93d 2a19 f4bc
00000250: 2ba6 3b3e 08f0 883d 9c3f c7bb 60ec 4f3e
00000260: 32b8 103e 8e1f dc3d 7390 bf3d bcda 553e
00000270: b151 533e 3e60 febc cc38 b63d 5001 083e
00000280: ebda 043d be02 a83d 260d de3d 1c4a 463e
00000290: 3c0b c13d ecdc a13c b6d0 293e 7272 0a3e
000002a0: 4c96 443d 0a9b 033e 3596 e73c ce37 a13d
000002b0: a497 1bbd fec9 e33d 702e 1e3e af25 c13d
000002c0: 04f9 a4bc 0b58 8c3d fb97 a23d 2890 893d
000002d0: 229b ca3d b028 e73d bee6 1d3c 3621 23bc
000002e0: d5d4 6d3d eb9d d33d 0917 b33d aa81 fc3c
000002f0: c35e 563d ab2a 103e f8f8 173e 6ea7 783d
00000300: 54e5 1e3e 96a3 443e a0c1 fbbc bb19 303e
00000310: 2cdf bb3d 9295 073c d5dc 493e 5328 153e
00000320: e9f0 34bd dda5 e4bd 8430 a93d 46ec 593e
00000330: 222d 943d 9ace 4b3e a5b5 c83c d85b 073e
00000340: fade 513d 9151 f23d 592b 133e 6e3c 1e3e
00000350: 59f7 5f3d dc0a 5a3b 15c9 8a3d cd4d 653d
00000360: 25fe 023e 329d bb3d d736 2f3e b718 263c
00000370: 3b4e 673d aaff 343e 0e35 9f3d 5cfb 4d3e
00000380: a164 0f3d 509a 1a3e f620 1f3d 2263 bb3d
00000390: c978 293e e619 b93d 8e14 3fbc ba65 8e3d
000003a0: f68f 873d 820c 243d c08e 55bb f09c ec3c
000003b0: 2419 fc3d f8ea 603d 210e d23d 3aba aa3d
000003c0: 5145 4a3e a854 943d 1c3b 6a3d 675a 1d3e
000003d0: 9a8d de3d 578d 373d 3b35 423e a9ff d23d
000003e0: 67bb 0d3e 2d3e 10bd 7318 2a3e fa51 c43c
000003f0: bf94 303e e0ae d93d 92ce ac3d 34d3 293d
-0.014127045 -0.10829795 -0.069923624 -0.11126272 -0.1326337 0.11954942 -0.1686456 -0.09248082
-0.17903814 -0.064723976 0.04040023 -0.11627583 0.014142348 -0.040988863 -0.06454765 -0.040289003
0.052628264 -0.18738583 -0.07442693 -0.11161699 -0.05697096 -0.17024498 0.022156462 0.020591684
-0.103906475 -0.12812872 -0.19445193 -0.17781894 -0.03608019 -0.12825677 -0.015776038 0.0076612514
-0.0612207 -0.07612992 -0.13133907 -0.09009896 -0.12757017 0.005468985 -0.09847069 -0.025186064
-0.0745714 -0.17038137 0.004821403 -0.108820684 -0.0059701763 -0.069920875 -0.17754066 -0.17316273
-0.089920044 0.016124897 0.040308315 -0.033641502 -0.13951634 -0.06942125 -0.02794377 -0.11797252
-0.05993171 0.044562347 -0.046402596 -0.045017093 -0.04149519 0.081033275 -0.073534906 -0.028728642
-0.18428716 -0.06611544 -0.08223185 -0.10209847 -0.13429561 -0.0027825404 -0.1359728 -0.087898284
0.14778289 -0.013540562 -0.14707671 -0.18614122 -0.07342678 -0.018847898 -0.06417811 -0.006283844
-0.10079712 -0.16936843 -0.06689616 -0.110626504 -0.030006927 -0.032957837 -0.16542052 -0.1515255
-0.036325134 -0.13650787 -0.009266308 -0.07082484 0.14766218 -0.08375605 -0.07160299 -0.021135382
0.0013062321 -0.13963602 -0.04370829 -0.044672057 -0.121703446 -0.07921412 -0.094831616 -0.0478862
-0.06455795 0.042433668 -0.17016949 -0.0505379 -0.118330784 -0.18681286 0.023185302 -0.043490194
-0.09188061 0.0007753642 -0.10807401 0.02687644 -0.031814255 0.03633487 -0.0031548105 -0.11480408
-0.066641316 -0.033785667 -0.2106446 -0.09225264 0.027551744 -0.08685405 -0.067729 -0.014291172
0.20645994 0.11274546 0.19990031 0.19193527 0.10734364 -0.051542934 0.08509585 0.025658254
0.09512632 0.10004018 0.028156158 0.1896285 0.15672952 0.1386041 0.018249221 0.17032555
0.060143076 0.12253463 0.09850499 -0.029797155 0.18325107 0.06686407 -0.006080581 0.20305014
0.14132765 0.10748206 0.093537234 0.20884222 0.20636632 -0.031051751 0.08897552 0.1328175
0.03243534 0.08203648 0.108423516 0.19364208 0.09425971 0.019758664 0.16583523 0.1352022
0.047994897 0.12852111 0.028269866 0.07871972 -0.037986413 0.11122511 0.15447402 0.09431016
-0.020138271 0.0685273 0.07939144 0.06716949 0.098928705 0.112870574 0.009637533 -0.009956649
0.0580643 0.10332855 0.08744628 0.030823547 0.052336466 0.14078777 0.14841068 0.06070655
0.15517169 0.19203028 -0.030731976 0.17197315 0.09173426 0.008275406 0.19713147 0.14566164
-0.044175062 -0.111644484 0.08261207 0.21281537 0.07235171 0.19903031 0.024500677 0.1321863
0.051238038 0.11831964 0.14372005 0.1545274 0.05467925 0.0033270633 0.067766346 0.0559824
0.12792261 0.09160842 0.17110763 0.010137728 0.05647109 0.17675653 0.07773791 0.20115417
0.035008077 0.15097928 0.038849793 0.091497675 0.16549982 0.09038143 -0.011662615 0.069529966
0.06619255 0.04005099 -0.0032586306 0.028883427 0.12309483 0.054911584 0.10256601 0.08336301
0.19753005 0.072427094 0.057185277 0.15366517 0.10866852 0.044812527 0.18965618 0.103026696
0.1384102 -0.035215545 0.16610889 0.02396487 0.17244242 0.10629058 0.08437838 0.041461185

action_head.bias f4 [3]
00000000: 3a59 3abe 7445 c53d 3990 29bc
-0.181981 0.09632388 -0.010349327

value_head.weight f4 [1, 128]
00000000: 26d9 48bc 1090 283d 989b 853d 2e5e 82bc
00000010: d604 883d b2f9 153d e75b 0f3c db36 a33d
00000020: 26c1 553d 5034 7fbb 5032 b4bb d84e 5c3c
00000030: c257 133c 67f2 4dbc e68f 56bc aef7 273d
00000040: 0ce8 2e3d 9172 923d c304 2abc f040 e93a
00000050: 9efd a43d 923b c0bd b0de 84bb ce43 8ebc
00000060: 5ef4 033d e020 a63c c041 833d 74a7 e5bc
00000070: 2ccb 003d 187a 4dbb 9a28 0f3d d629 17bd
00000080: b3e4 9a3d 406a 4cba 03b6 a4bd 4df8 b93b
00000090: f60f 773d 7063 e2bc 2b8b a53d b61d cabc
000000a0: f87a 163d a71d e33d f2c7 70bd 0d9a a6bd
000000b0: d83c 073e 991b fb3c cdb3 51bc ac0b 82bc
000000c0: bf45 babc 5c1e e13b 6e19 f13d 1dcc 843d
000000d0: 05dd 5c3d e283 503d 0bc4 febc 367e 06bd
000000e0: 9e28 69bd 75d6 423c 72e2 bebc 3c3b 67bc
000000f0: dd10 94bd d32e 053e 5a70 e93d d6e4 d2bc
00000100: 8fc1 1fbc a48b 483d bcf1 0bbb 1a4b f93c
00000110: 3ac8 acbd e6ff 013e 6bdc a9bc b2a6 813d
00000120: ae83 693d 440a 5b3c aa5b 2dbd de99 2bbd
00000130: 5b0e 6f3d 0a90 a1bc b5f7 e7bd eb78 c4bc
00000140: 2d14 913d 04bf e13d 702b ccbb f11f a73d
00000150: 8f0b 3b3d 266e 9fbc 6a4d ce3c ce48 813d
00000160: 6190 22bd b9e4 b0bc 4b6d 923c ed5a 1bbc
00000170: 2532 5c3c 5c53 5fbb 8809 323d 8f8a 03bd
00000180: 7bb7 78bd 0eb6 0a3d 6498 19bb 7faf 073d
00000190: 4ad9 aa3b 9e75 d43d 40b8 3a39 8dba d6bc
000001a0: da6a f43d 2ee7 313d 0523 733c 5e44 d83c
000001b0: 6f94 113d cdbd 70bc 4649 fd3b 768d d63d
000001c0: c802 5f3b 2e48 d23c ba52 7fbd de7b b53b
000001d0: a1be 983d cc37 3f3c 6cc4 c93d f8c0 5abd
000001e0: 5fc0 fa3c fe7c 60bd 6fc0 3e3d 85d6 9a3d
000001f0: 83fd 523d 1b80 7c3c 4204 df3b 1424 de3b
-0.0122588035 0.041153014 0.06523818 -0.015914049 0.066415474 0.03661508 0.008749939 0.07969447
0.052186154 -0.0038941093 -0.005499162 0.013446532 0.008993091 -0.01257 -0.0130958315 0.04100769
0.042701766 0.07150758 -0.010377112 0.0017795842 0.08056186 -0.09386362 -0.0040548667 -0.017366316
0.03221547 0.020279348 0.06409025 -0.02803395 0.03144376 -0.003135329 0.03495083 -0.036905132
0.07563152 -0.0007797815 -0.080425285 0.0056753517 0.060317956 -0.027635306 0.08083185 -0.02467237
0.036738366 0.1108964 -0.058784433 -0.081348516 0.13206804 0.030652808 -0.0127992155 -0.015874706
-0.022738336 0.006870074 0.117724285 0.06484244 0.05392172 0.050907023 -0.03109934 -0.032835208
-0.0569235 0.011891951 -0.023301337 -0.014113244 -0.07229779 0.13006143 0.113983825 -0.025743883
-0.009750738 0.048961297 -0.0021353802 0.030431319 -0.08436628 0.12695274 -0.020734986 0.06330623
0.057010345 0.013369147 -0.042323746 -0.041894786 0.0583633 -0.019722003 -0.11326543 -0.02398344
0.07083926 0.110227615 -0.006230764 0.08160389 0.04566532 -0.019461703 0.025183398 0.063127145
-0.03968847 -0.021593438 0.01787438 -0.009482128 0.01343969 -0.0034076786 0.04346612 -0.03211456
-0.060721856 0.033865027 -0.002343678 0.03312635 0.005213891 0.10373996 0.00017806981 -0.026212001
0.11934443 0.04343336 0.014839892 0.026399788 0.035541948 -0.0146936895 0.007729682 0.104762
0.0034028757 0.025669184 -0.062334754 0.0055384478 0.074582346 0.011671018 0.098519176 -0.053406686
0.030609308 -0.0548067 0.046570238 0.075604476 0.0515113 0.015411402 0.0068059275 0.006779203
