ActorCritic/actor_critic_model_100.pth (torch, 6942 bytes, 5 tensors)

affine1.weight f4 [128, 4]
0	0x3e8f22a1	0.27956107
1	0x3f059ad2	0.5218936
2	0x3fb3dbdb	1.405147
3	0x3e84d015	0.25940004
4	0xbd3ca5db	-0.04605661
5	0xbeba8447	-0.36429045
6	0x3e22bf76	0.15893349
7	0x3f006ce0	0.5016613
8	0x3f696a48	0.911778
9	0xbed4388f	-0.414494
10	0xbef25dc8	-0.47337174
11	0xbe9b38ad	-0.30316678
12	0xbf0abf13	-0.54197806
13	0xbe042086	-0.12903032
14	0xbf871418	-1.0553007
15	0x3f3247e1	0.6964093
16	0xbd9e743d	-0.077370144
17	0x3ee5de35	0.44896093
18	0xbf777131	-0.9665709
19	0xbd27ee10	-0.04099852
20	0xbe625e10	-0.22106194
21	0x3e07d376	0.1326426
22	0xbebc2dd6	-0.3675372
23	0x3e331fbe	0.17492577
24	0xbd427ba3	-0.04748119
25	0x3e1b3c41	0.15159704
26	0xbf3c756a	-0.7361666
27	0x3e1e8cb9	0.15483369
28	0xbf3d79ad	-0.7401379
29	0x3f28e7e2	0.65978825
30	0xbf11ae17	-0.56906265
31	0x3eabd8ba	0.33563787
32	0x3e089c61	0.13340904
33	0xbe684173	-0.22681217
34	0x3e85922f	0.26088092
35	0x3e0b61f6	0.13611588
36	0x3ea328d1	0.31867078
37	0xbee10e43	-0.43956193
38	0xbcb1bc40	-0.02169621
39	0xbf98c4ea	-1.1935093
40	0xbec30523	-0.38089857
41	0x3ef6a8d2	0.48175675
42	0xbf8acbb4	-1.0843415
43	0xbe97a568	-0.29618382
44	0x3da62e12	0.08114256
45	0x3e86993c	0.26288784
46	0x3ed08139	0.4072359
47	0xbcfec322	-0.031098906
48	0xbd79d92d	-0.06099813
49	0xbf3413c6	-0.7034267
50	0xbf8ab4c0	-1.083641
51	0xbf123543	-0.5711252
52	0x3effa0f1	0.49927476
53	0x3f2ab975	0.66689235
54	0xbce04064	-0.027374454
55	0x3eddf700	0.4335251
56	0x3c1128ee	0.008859856
57	0x3dfdc4d9	0.12391061
58	0xbf44575b	-0.76695794
59	0x3ed038cc	0.40668333
60	0x3f0d3fac	0.5517528
61	0x3dba4eaa	0.09097035
62	0x3c8232ba	0.015893329
63	0x3dacb200	0.08432388
64	0x3c9115a4	0.017710514
65	0xbdaee0af	-0.08538949
66	0x3f17fbc9	0.5936857
67	0xbb233f33	-0.0024909496
68	0xbf3d8bac	-0.7404125
69	0xbf1c29ae	-0.610011
70	0x3cec4ff4	0.028846718
71	0xb9458980	-0.00018838607
72	0x3e479db6	0.19493756
73	0xbe9074c6	-0.2821409
74	0x3f0df077	0.55445045
75	0xbe3d2cfd	-0.18474193
76	0xbe25fc15	-0.16209443
77	0x3e36f338	0.17866218
78	0xbe5f6f78	-0.21819866
79	0xbe5c1c64	-0.21495205
80	0x3de87f60	0.1135242
81	0xbe438cf1	-0.19096734
82	0xbf31cd91	-0.69454294
83	0x3dfaa104	0.122377425
84	0xbf4eb75c	-0.80748534
85	0x3f492654	0.7857411
86	0xbeac129f	-0.33607957
87	0x3f383a03	0.7196352
88	0x3e479121	0.19488956
89	0x3ebc5853	0.36786136
90	0x3f6e6699	0.931253
91	0x3e0dcd73	0.13847904
92	0x3ed369a3	0.41291532
93	0xbe7314c8	-0.23738396
94	0xbf857e65	-1.0429198
95	0xbe9a200e	-0.3010258
96	0x3ed81b7b	0.42208466
97	0xbec8d517	-0.39225075
98	0xbf39efe8	-0.7263169
99	0xbe6d101c	-0.23150676
100	0x3e15ba90	0.14621949
101	0x3de846da	0.11341639
102	0x3f1cf624	0.6131308
103	0x3d97b13c	0.07406852
104	0x3f2c4008	0.67285204
105	0x3f096e36	0.53683794
106	0x3f07fe8f	0.531228
107	0x3dd7cf54	0.105375916
108	0xbf119b43	-0.56877536
109	0xbf33ef83	-0.7028734
110	0xbfa2738b	-1.2691511
111	0xbee9690e	-0.45587963
112	0xbefe379a	-0.49651796
113	0xbf0e9f9a	-0.5571228
114	0xbdb582c3	-0.088628314
115	0x3e7ee517	0.24892078
116	0xbe9009a6	-0.2813236
117	0xbf2d4fb1	-0.67699724
118	0xbf804c96	-1.0023372
119	0xbecd472f	-0.4009337
120	0x3e8cea1a	0.27522355
121	0xbf4b54cf	-0.7942628
122	0xbfb413c8	-1.4068537
123	0xbef4dcd3	-0.47824726
124	0x3e8b9c09	0.27267483
125	0xbd0e8ddf	-0.034803268
126	0x3e5ead8a	0.21745887
127	0xbc13d6f6	-0.009023419
128	0xbf292aca	-0.66080916
129	0xbe1333fd	-0.143753
130	0xbfa9eac6	-1.3274772
131	0xbda5abea	-0.08089431
132	0x3e97db6c	0.29659593
133	0x3ec0546c	0.3756441
134	0x3f8ab0cf	1.0835208
135	0x3f38569a	0.72007143
136	0x3d0cc8ae	0.03437107
137	0x3eb2d63c	0.34929073
138	0x3eda0fbb	0.42590126
139	0x3ed2bfb4	0.41161883
140	0x3d37c4b9	0.044865344
141	0xbe98eb1a	-0.29866868
142	0xbe93762b	-0.28801093
143	0x3c0cdaf1	0.008597122
144	0x3e3aec5f	0.18254231
145	0x3dcb0a74	0.09914103
146	0x3f2ad0d8	0.6672492
147	0x3e40cf26	0.18829021
148	0x3e92528a	0.28578597
149	0x3f690438	0.9102206
150	0x3f65bf1a	0.8974472
151	0x3f287bec	0.6581409
152	0x3d496006	0.04916384
153	0xbc151604	-0.009099487
154	0x3dde3724	0.10850361
155	0x3d31665e	0.043310516
156	0x3ced33e3	0.028955406
157	0x3ea0ef30	0.31432486
158	0xbdb1d032	-0.08682288
159	0x3d5f3e7a	0.05450294
160	0x3ddd25ca	0.10798223
161	0xbe7f9d4c	-0.24962348
162	0x3f227a5a	0.63467944
163	0xbe404a86	-0.18778428
164	0xbd6387b2	-0.05554933
165	0xbe21cae8	-0.15800059
166	0xbee95321	-0.45571235
167	0xbd50965b	-0.05092464
168	0x3c86b2fe	0.016442772
169	0x3d4556c8	0.048178464
170	0x3f2bbac1	0.6708184
171	0xbd5375c0	-0.051625967
172	0xbf3dbdc5	-0.7411769
173	0x3eeab1f5	0.45838895
174	0xbf114606	-0.5674747
175	0x3f028419	0.50982815
176	0xbe99132a	-0.29897434
177	0xbf24b88d	-0.643441
178	0xbf96a8db	-1.1770281
179	0xbe8b645a	-0.27225
180	0x3db5196b	0.08842739
181	0xbd01a190	-0.03164822
182	0xbe19555d	-0.1497397
183	0x3dc72d43	0.0972543
184	0x3f4089b0	0.75210094
185	0xbeebab97	-0.4602935
186	0xbf54c437	-0.831119
187	0xbe950ec6	-0.29112834
188	0xbb755979	-0.0037437363
189	0x3e5fb815	0.21847565
190	0x3f6ebdf5	0.932586
191	0x3ea7bc13	0.32760677
192	0x3e9eddf4	0.31028712
193	0x3ea66db9	0.32505587
194	0xbe0755b5	-0.13216288
195	0x3d9a3cba	0.07531114
196	0xbd6791db	-0.056535583
197	0x3eaba202	0.3352204
198	0x3f179ce1	0.59223753
199	0xbcedd421	-0.029031815
200	0x3e00ccce	0.12578127
201	0x3e603637	0.21895681
202	0xbdfc3bc7	-0.12316089
203	0x3de8f5f2	0.11375035
204	0x3f2f42f5	0.68461543
205	0x3f4150f4	0.7551415
206	0xbe160dde	-0.14653727
207	0x3d6053b7	0.054767337
208	0x3eb2a65e	0.34892553
209	0x3ebf4d72	0.37363774
210	0x3e5c5f33	0.2152069
211	0x3e690d48	0.22758973
212	0x3c8c70dc	0.01714366
213	0x3e31f69a	0.17379227
214	0xbdef4ec2	-0.11684944
215	0x3e8f55e8	0.2799523
216	0x3ddd0dc5	0.10793642
217	0xbf18eae8	-0.5973344
218	0xbf011373	-0.504203
219	0xbe61feb9	-0.22069825
220	0xbea7b617	-0.3275611
221	0x3d2010d2	0.03907854
222	0x3dacd45f	0.08438944
223	0x3ea18e22	0.3155375
224	0xbe7fb09b	-0.24969713
225	0xbf2dc091	-0.6787196
226	0xbfac3dbb	-1.3456339
227	0xbee4d74d	-0.4469551
228	0x3eb3fc1f	0.3515329
229	0x3ea9c2af	0.33156344
230	0x3f4f9dae	0.81099975
231	0x3f17224b	0.590367
232	0xbdb2633c	-0.08710334
233	0x3c9397ff	0.018016813
234	0x3f907ac9	1.1287471
235	0xbe46b619	-0.19405402
236	0xbe2b9213	-0.16754942
237	0x3f0cb9f8	0.54971266
238	0xbeba53f8	-0.36392188
239	0xbe017515	-0.1264232
240	0x3eb5fd61	0.35544875
241	0x3c941562	0.018076602
242	0x3d60fb1e	0.054926984
243	0x3e73b34d	0.23798867
244	0xbd89ac60	-0.06722331
245	0x3e11915d	0.14215608
246	0xbe0b98c5	-0.13632496
247	0x3e8a5009	0.27014187
248	0x3c7b9560	0.015355438
249	0x3ef272a0	0.47353077
250	0x3f726830	0.9469023
251	0x3b32ed40	0.0027302057
252	0x3e040356	0.12891898
253	0xbd337ba8	-0.0438191
254	0x3d6ef33d	0.05833744
255	0x3e7b324d	0.24530907

affine1.bias f4 [128]
0	0xbe26a789	-0.16274847
1	0xbf1d3f57	-0.61424774
2	0xbed15802	-0.40887457
3	0xbeed5b5c	-0.46358764
4	0xbe699c41	-0.22813512
5	0xbe777695	-0.24166329
6	0xbeb5a71e	-0.35479063
7	0xbdee389c	-0.11631891
8	0xbf1b2f59	-0.6061912
9	0xbe0a672b	-0.13515918
10	0xbbb76f48	-0.0055979826
11	0xbf71d675	-0.9446786
12	0xbe24acd2	-0.1608155
13	0xbdd801d0	-0.10547221
14	0xbf318a23	-0.69351405
15	0xbea26e89	-0.31724957
16	0xbf0aafba	-0.5417439
17	0xbebaeb1b	-0.36507496
18	0xbf02b4d5	-0.5105718
19	0xbef1916b	-0.47181258
20	0xbf26cda0	-0.6515751
21	0xbdbf6582	-0.09345533
22	0xbe725fcd	-0.23669358
23	0xbeabe1cb	-0.33570704
24	0xbe8e0dc9	-0.27744892
25	0xbecebea7	-0.4037983
26	0xbe536ce6	-0.2064701
27	0xbea06480	-0.31326675
28	0xbd94160a	-0.07230766
29	0xbef03121	-0.46912482
30	0xbe0199dd	-0.1265635
31	0xbee94e02	-0.45567328
32	0xbe3c8bd2	-0.18412712
33	0xbe2afe6a	-0.16698614
34	0x3dea58b2	0.114426985
35	0xbf20dd76	-0.6283792
36	0xbeef27e2	-0.46710116
37	0x3cc2c60d	0.023776079
38	0xbe92ae44	-0.2864858
39	0xbf35e40e	-0.7105111
40	0xbf3e1c59	-0.74262005
41	0xbeaababd	-0.33345595
42	0xbeb78b90	-0.35848665
43	0xbe549902	-0.20761493
44	0xbef837ef	-0.48480174
45	0xbe86d913	-0.2633749
46	0xbea52978	-0.322582
47	0xbf642691	-0.8912135
48	0xbe6bcf54	-0.23028308
49	0xbef2ecd7	-0.4744632
50	0xbe4bac49	-0.1988994
51	0xbe9974cf	-0.2997193
52	0xbedaf78d	-0.4276699
53	0xbf001145	-0.5002635
54	0xbe4c369b	-0.19942705
55	0xbf8a6d8e	-1.0814683
56	0xbebb2364	-0.36550438
57	0xbec993cf	-0.39370582
58	0xbee52af5	-0.44759336
59	0xbef9d5c4	-0.48795903
60	0xbf09890d	-0.5372475
61	0xbef7ff38	-0.48436904
62	0xbefb5a2a	-0.49092227
63	0xbf14b45f	-0.58087724
64	0xbeb2d46d	-0.34927693
65	0xbe9cdea4	-0.3063861
66	0xbe5c1f9f	-0.21496437
67	0xbf23fc88	-0.6405721
68	0xbda62abc	-0.0811362
69	0xbece3c12	-0.40280205
70	0xbf550f8e	-0.8322686
71	0xbd8b680d	-0.068069555
72	0xbf016771	-0.50548464
73	0xbc684e26	-0.014178788
74	0xbf32cac9	-0.69840676
75	0x3d4e3852	0.05034668
76	0xbe34efef	-0.17669652
77	0xbedb6b42	-0.4285527
78	0xbe904977	-0.2818105
79	0xbe309124	-0.17242867
80	0xbef37684	-0.47551358
81	0xbd5ce99c	-0.053933725
82	0xbf8c95c5	-1.0983206
83	0xbc8a2b72	-0.01686642
84	0xbdb21a3a	-0.086964086
85	0xbe9e227d	-0.30885687
86	0xbe6463a7	-0.2230364
87	0xbea99053	-0.33117923
88	0xbee9be5e	-0.4565305
89	0xbf12214d	-0.5708206
90	0xbebb5867	-0.36590883
91	0x3d0d24a2	0.034458764
92	0x3d33c226	0.043886326
93	0xbf1f01c6	-0.6211208
94	0xbecdafea	-0.40173274
95	0xbe67aac6	-0.22623739
96	0xbf928428	-1.1446581
97	0xbeb5cbbd	-0.35507002
98	0xbec540f5	-0.3852612
99	0xbebfef88	-0.37487435
100	0xbea4143a	-0.32046682
101	0xbece31d8	-0.40272403
102	0x3b86c650	0.004112996
103	0xbd147da9	-0.03625265
104	0xbef7f894	-0.48431838
105	0xbf45467f	-0.77060694
106	0xbf1e5af5	-0.6185754
107	0xbe9e5b42	-0.30929
108	0xbd29c9bc	-0.041452155
109	0x3e02953a	0.12752238
110	0xbee75b9c	-0.4518708
111	0xbf428986	-0.75991094
112	0xbd1618a0	-0.036644578
113	0xbcfc4d5a	-0.030798603
114	0x3d56f145	0.052476186
115	0xbe64fb4b	-0.22361486
116	0x3eb2be67	0.3491089
117	0x3e44b6d9	0.19210376
118	0xbeea70fe	-0.4578933
119	0xbeffeb74	-0.49984324
120	0xbf64fea1	-0.8945103
121	0xbed103f0	-0.40823317
122	0x3e031669	0.12801518
123	0xbe2aa63e	-0.16664979
124	0xbeb9b79f	-0.36272904
125	0xbee21087	-0.44153234
126	0xbebe86c9	-0.37212208
127	0xbeacb277	-0.33729908

action_head.weight f4 [2, 128]
0	0xbeea32af	-0.45741794
1	0xbe85c886	-0.2612955
2	0x3d5dfb34	0.054194644
3	0xbe476182	-0.1947079
4	0x3e88ea17	0.26741096
5	0x3d736bff	0.059429165
6	0x3c59dff9	0.013298028
7	0x3d667506	0.056263946
8	0xbe328d04	-0.17436606
9	0x3f12e01a	0.573732
10	0x3f3a44ba	0.7276112
11	0x3e824fe5	0.2545158
12	0x3f1edc28	0.6205468
13	0xbf0b8d72	-0.54512703
14	0xbda24129	-0.079225846
15	0xbe87ba9b	-0.26509556
16	0x3e003ffb	0.12524407
17	0x3d6ae230	0.057344615
18	0xbda4b21b	-0.080417834
19	0x3d16c3df	0.03680789
20	0xbcb9135e	-0.022592243
21	0xbcf3a3a8	-0.029741123
22	0xbe8d1008	-0.27551293
23	0x3dbe126b	0.09280857
24	0x3e158639	0.14601983
25	0x3cd743f9	0.02627753
26	0xbef766e6	-0.48320693
27	0x3ec914e8	0.39273763
28	0xbeb4958a	-0.3527034
29	0x3e944c3e	0.28964418
30	0x3d1f44e0	0.038884044
31	0xbd91461b	-0.0709345
32	0x3efa59e8	0.48896718
33	0xbf0f7a96	-0.56046426
34	0xbe75200e	-0.23938009
35	0x3e2b6faa	0.16741815
36	0xbe4b9839	-0.19882287
37	0xbf43ffed	-0.76562387
38	0xbd48d259	-0.04902873
39	0x3d570893	0.05249841
40	0x3ddd6b66	0.108115
41	0x3d6d5fc2	0.05795265
42	0xbdd90cfc	-0.1059818
43	0x3eb48467	0.35257265
44	0x3ef27577	0.47355244
45	0x3e65fe0e	0.22460195
46	0x3e3a7c29	0.18211426
47	0xbd5dce50	-0.054151833
48	0xbe77fa63	-0.24216609
49	0xbeba101b	-0.36340412
50	0x3e0de16e	0.13855526
51	0xbe6cab94	-0.23112327
52	0xbe1b37ad	-0.15157957
53	0xbe3964a1	-0.18104793
54	0x3e3ae5ba	0.18251696
55	0x3df221ec	0.11822876
56	0x3ec789eb	0.3897241
57	0xbee09bb1	-0.43868783
58	0xbd0382e8	-0.032107264
59	0xbcd327c8	-0.025775805
60	0x3dbcc486	0.09217171
61	0xbe1d8076	-0.15381035
62	0xbf4bee0e	-0.7966012
63	0x3c05e8bd	0.008173165
64	0xbe83408a	-0.25635177
65	0xbd001b64	-0.03127612
66	0x3f360060	0.7109432
67	0xbe22da18	-0.15903509
68	0xbf203253	-0.6257679
69	0x3e36e082	0.1785908
70	0x3eb79c75	0.35861555
71	0xbd2c17e8	-0.042014986
72	0xbd9f0688	-0.077649176
73	0xbf52194a	-0.8206984
74	0x3b6a751c	0.003577537
75	0xbb93abb8	-0.0045065545
76	0xbef31ac1	-0.4748135
77	0x3d484fd4	0.048904255
78	0x3e6f1b56	0.23350272
79	0x3e57fa54	0.21091586
80	0xbf31c030	-0.6943388
81	0xbf03009b	-0.511728
82	0xbdd34d3d	-0.103174664
83	0x3dafac04	0.08577731
84	0xbf1e60d6	-0.6186651
85	0xbf0abe97	-0.5419707
86	0x3e963f22	0.29345042
87	0x3e157fb2	0.14599493
88	0xb7cabd58	-2.4168447e-05
89	0x3e62e974	0.22159368
90	0x3df6d71b	0.12052747
91	0xbf7b87f3	-0.9825432
92	0xbf4739b4	-0.77822423
93	0xbf0869e5	-0.5328658
94	0xbe80dad2	-0.25166947
95	0x3dbfa756	0.09358089
96	0xbd0689bc	-0.032846197
97	0xbedce5d9	-0.4314411
98	0x3d4e2089	0.050323997
99	0x3eb2d284	0.34926236
100	0xbe3bf1f8	-0.18354023
101	0xbef93259	-0.48671225
102	0xbf3615f8	-0.7112727
103	0xbe8484c1	-0.25882533
104	0x3e2ce476	0.16884026
105	0x3e5c99cb	0.21543042
106	0xbe59937f	-0.21247672
107	0x3ec8f0c9	0.39246204
108	0x3e3bb1b6	0.1832951
109	0xbe88b30e	-0.26699108
110	0xbe12f7fb	-0.1435241
111	0x3e7a59e5	0.24448355
112	0xbf5b1fe2	-0.85595524
113	0xbdffbfa8	-0.124877274
114	0xbf284b12	-0.6573955
115	0xbe0cab6d	-0.13737269
116	0xbebc14a4	-0.36734498
117	0xbf6796b5	-0.90464336
118	0x3f288086	0.6582111
119	0xbd953d6f	-0.07287108
120	0x3ee657ac	0.44988763
121	0xbdebf265	-0.115208425
122	0xbe531af2	-0.20615748
123	0xbe4aa04a	-0.19787708
124	0x3ec6555c	0.38737
125	0xbe96511c	-0.29358757
126	0xbcf88feb	-0.030342063
127	0xbe2800bb	-0.16406529
128	0x3f14f7ed	0.58190805
129	0x3e831e62	0.25609118
130	0xbcb6ed08	-0.022329822
131	0x3d90e436	0.07074778
132	0xbeb28ece	-0.34874576
133	0xbe0872bb	-0.13325016
134	0x3d392fd3	0.045211624
135	0xbe14b5d9	-0.14522494
136	0x3e6440b2	0.22290304
137	0xbf097af3	-0.5370323
138	0xbf3630a9	-0.71168
139	0xbe40d14a	-0.18829837
140	0xbf3872de	-0.72050273
141	0x3efbf3cb	0.49209437
142	0x3df98050	0.12182677
143	0x3e8347ff	0.25640866
144	0xbe0625ad	-0.1310031
145	0xbdff39e5	-0.124622144
146	0x3dd02644	0.101635486
147	0xbb9ed4ca	-0.004847144
148	0x3c8fd23a	0.017556299
149	0x3e0192f3	0.12653713
150	0x3e01910a	0.12652984
151	0xbe5d7dfb	-0.21630089
152	0xbe48cfee	-0.19610569
153	0xbc84e88a	-0.016224165
154	0x3ee51e2a	0.44749576
155	0xbefe6f68	-0.4969437
156	0x3e8aa9c0	0.27082634
157	0xbeb80278	-0.35939384
158	0xbcf89b08	-0.030347362
159	0x3d9dc0d9	0.077027984
160	0xbed12843	-0.4085103
161	0x3f0d14e6	0.55110013
162	0x3e81bee1	0.25340942
163	0xbe51f93e	-0.20505235
164	0x3e5a5487	0.21321307
165	0x3f31f91c	0.69520736
166	0xbd59482b	-0.05304734
167	0xbc6b86af	-0.014375373
168	0x3c0bf5bb	0.008542473
169	0xbd25634c	-0.0403779
170	0x3dd68172	0.104739085
171	0xbee1bf98	-0.44091487
172	0xbeeeca53	-0.46638736
173	0xbe8a3974	-0.26996958
174	0xbdf4fec6	-0.11962657
175	0x3d946e76	0.07247631
176	0x3e3e2b5c	0.18571228
177	0x3e863d05	0.2621843
178	0xbe1bf097	-0.15228496
179	0x3e824983	0.2544671
180	0x3e6bde97	0.2303413
181	0x3e74d0d3	0.23907785
182	0xbdddfdc4	-0.108394176
183	0xbd23b8c2	-0.03997112
184	0xbf00fe7e	-0.50388324
185	0x3ef8816c	0.4853624
186	0x3d3a26db	0.04544721
187	0xbd8c103a	-0.068390325
188	0x3d2870c7	0.041123178
189	0x3de8aeea	0.11361487
190	0x3f4be40f	0.79644865
191	0x3e12a736	0.14321598
192	0x3e58cb78	0.21171367
193	0x3d1f9af2	0.038966127
194	0xbf36e3f8	-0.714416
195	0x3e0a2351	0.13490035
196	0x3f112f47	0.56712765
197	0xbe64429b	-0.22291033
198	0xbe9caf7d	-0.30602637
199	0xbbef55fe	-0.0073039522
200	0x3db2f6ba	0.087384656
201	0x3f3955f4	0.7239678
202	0x3d18367b	0.03716133
203	0x3d879544	0.06620267
204	0x3ede1284	0.433735
205	0xbc272c15	-0.010203381
206	0xbe53ec81	-0.20695688
207	0xbe9fae41	-0.31187633
208	0x3f45429b	0.77054757
209	0x3f149778	0.5804362
210	0x3ddfc8fb	0.10927006
211	0x3cfd1935	0.030895809
212	0x3f23b452	0.6394702
213	0x3f01f70b	0.5076758
214	0xbead5f7a	-0.33861905
215	0xbe05a945	-0.13052852
216	0xbca70926	-0.020390105
217	0xbe35bee5	-0.17748602
218	0xbd3deba8	-0.046367317
219	0x3f72c78c	0.94835734
220	0x3f490b72	0.7853309
221	0x3ee09d5d	0.4387006
222	0x3e967f29	0.2939389
223	0xbcb45fe5	-0.022018382
224	0xbd87b15a	-0.06625624
225	0x3eff8535	0.49906316
226	0xbdd78e8c	-0.105252355
227	0xbee559b9	-0.44795015
228	0x3e810820	0.2520151
229	0x3f06910d	0.5256508
230	0x3f3f7ef6	0.748031
231	0x3e64a0d5	0.22326978
232	0xbe20ac63	-0.1569076
233	0xbe396799	-0.18105926
234	0x3e202215	0.15638001
235	0xbef14ff2	-0.47131306
236	0xbe1f1e5d	-0.15538926
237	0x3ebaa845	0.36456504
238	0x3da35123	0.0797446
239	0xbe6d44ea	-0.2317082
240	0x3f365fa6	0.712397
241	0x3d897f80	0.06713772
242	0x3f1ccea2	0.61252797
243	0x3e885ae5	0.26631847
244	0x3ea2866a	0.31743175
245	0x3f4f6eed	0.81028634
246	0xbf0f4fc9	-0.5598112
247	0x3e2eb95c	0.17062896
248	0xbe9f74bf	-0.31143758
249	0x3d961c38	0.07329601
250	0x3df4fbc4	0.11962083
251	0x3e267757	0.16256462
252	0xbeea2357	-0.45730087
253	0x3ec4996a	0.38398296
254	0x3d51851b	0.05115233
255	0x3e570297	0.20997082

action_head.bias f4 [2]
0	0x3e236e18	0.15959966
1	0xbe060d35	-0.13090976

value_head.weight f4 [1, 128]
0	0x3de589ac	0.112078995
1	0x3e751949	0.23935427
2	0xbea96c56	-0.33090466
3	0xbe80cc24	-0.25155747
4	0xbdf232b7	-0.11826079
5	0xbd730fd3	-0.059341263
6	0xbd8cc425	-0.06873349
7	0xbe62d355	-0.2215093
8	0xbe121505	-0.14265831
9	0xbdcd3e36	-0.100216314
10	0xbe523cf3	-0.20531063
11	0xbeb7aac0	-0.3587246
12	0xbe2eb29d	-0.17060323
13	0xbed51578	-0.41617942
14	0xbc1a125d	-0.009403792
15	0xbe709d9c	-0.23497623
16	0x3e0453f2	0.12922648
17	0xbe3ffe7b	-0.1874942
18	0xbe70b1b1	-0.23505284
19	0x3da63c0c	0.08116922
20	0xbaae8e7b	-0.0013317609
21	0xbe8ca6dc	-0.27471054
22	0xbe671ff1	-0.22570778
23	0xbe20893a	-0.15677348
24	0xbe6ff33e	-0.23432633
25	0xbe9caa13	-0.30598506
26	0xbe2647db	-0.16238348
27	0xbe9bb144	-0.3040868
28	0xbe897aff	-0.2685165
29	0xbe344d7f	-0.17607687
30	0xbe187a35	-0.14890368
31	0xbd0b9746	-0.034079812
32	0xbe072b0d	-0.13200016
33	0xbe6be45f	-0.23036335
34	0xbe0dc4b5	-0.13844569
35	0x3dae4648	0.08509499
36	0x3e3a7ab3	0.18210869
37	0xbf053d71	-0.5204688
38	0xbded44bc	-0.11585376
39	0xbe6ac4c4	-0.22926623
40	0x3d6c552b	0.05769841
41	0x3bc45321	0.005991355
42	0xbeba1d3f	-0.36350438
43	0xbe0dbcb0	-0.1384151
44	0x3bb41014	0.0054950807
45	0xbea43ad5	-0.32076135
46	0xbe7220db	-0.23645346
47	0xbe36f3fb	-0.17866509
48	0x3c0a6dca	0.008449027
49	0x3e3d239c	0.18470615
50	0xbe7dc8ba	-0.24783602
51	0xbec505f8	-0.38481116
52	0x3d283288	0.041063815
53	0x3e7278e5	0.2367893
54	0xbd4efaf0	-0.05053228
55	0xbeb86cc6	-0.36020488
56	0xbeac1662	-0.33610827
57	0xbdd5a9b3	-0.10432758
58	0xbeb0a662	-0.3450194
59	0x3da271eb	0.079318844
60	0xbe4e51a1	-0.20148326
61	0x3d8be5b7	0.06830924
62	0x3dc00d9d	0.093775965
63	0xbded23d2	-0.11579098
64	0xbee9814d	-0.4560646
65	0xbeadc0d5	-0.33936182
66	0xbe4af5be	-0.19820306
67	0xbdcd7408	-0.10031897
68	0xbe6e7450	-0.23286557
69	0xbe570d05	-0.2100106
70	0xbe8db1d4	-0.27674735
71	0xbe04cee4	-0.12969548
72	0xbe0053ba	-0.12531939
73	0xbed2d008	-0.4117434
74	0x3cdd9f4e	0.027053501
75	0xbe344aad	-0.17606612
76	0xbeb8cfa8	-0.3609593
77	0x3e1eb29c	0.15497822
78	0xbe8131f7	-0.25233433
79	0xbe0a5196	-0.13507685
80	0xbe594e5b	-0.21221296
81	0xbe966f4a	-0.29381782
82	0xbe9fb62a	-0.31193668
83	0xbdad8d0f	-0.084741704
84	0xbda441d7	-0.080203705
85	0xbdce600c	-0.10076913
86	0xbecc4d46	-0.39902705
87	0xbed03fad	-0.4067358
88	0xbb5eb1fc	-0.0033980599
89	0xbdb248b7	-0.087052755
90	0xbe0b2534	-0.1358841
91	0xb9ebd840	-0.00044983812
92	0xbeba5f92	-0.3640104
93	0x3dcc3cac	0.0997251
94	0xbe3f0f3e	-0.18658158
95	0x3db0fb94	0.08641735
96	0xbe566dfe	-0.20940396
97	0xbe653698	-0.22384107
98	0xbe68cf2c	-0.2273528
99	0xbe45dcfd	-0.19322582
100	0x3d418c6d	0.04725306
101	0xbeb7e6fb	-0.35918412
102	0xbeef479b	-0.46734318
103	0xbe33463c	-0.17507261
104	0xbe314096	-0.17309794
105	0xbe8ef481	-0.27920917
106	0xbdde3830	-0.10850561
107	0xbe83f5d1	-0.2577348
108	0xbe77f881	-0.2421589
109	0xbe842415	-0.25808778
110	0xbe42ea24	-0.1903463
111	0xbb507d91	-0.0031813125
112	0xbeaca425	-0.33718982
113	0xbe3aa70a	-0.18227783
114	0xbe3f9cd0	-0.18712163
115	0xbe4a60b0	-0.19763446
116	0xbd141e64	-0.036161795
117	0xbe83f225	-0.2577068
118	0xbe38ba53	-0.18039827
119	0xbea12d26	-0.31479758
120	0xbe32ce04	-0.17461401
121	0xbeb4417e	-0.35206217
122	0xbe0a3d64	-0.13499981
123	0xbe67a61a	-0.22621956
124	0xbe4a057e	-0.19728658
125	0xbb73463e	-0.0037120725
126	0xbdc98510	-0.09839833
127	0xbdab27d0	-0.08357203
