ActorCritic/MountainCar-v0_actor_critic_model_10.pth (torch, 6634 bytes, 5 tensors)

affine1.weight f4 [128, 2]
00000000: 5300 77be 0528 4cbf ea8e ac3e 6b9a 843e
00000010: 7e58 bbbe 2a36 0e3f abc1 0a3f 102a 003e
00000020: cc8c 373f a370 ec3d 45dc 0ebc 0efa 2dbf
00000030: e05f 42be b098 063f 2967 05bf 3eb4 fe3e
00000040: e20e 95be 11a3 343f 521d f03c 590f 4cbe
00000050: 37e9 24be f339 df3e e7c7 99be 534b a13d
00000060: fca1 babe d2c9 0a3f 6538 8fbe e3bb 6f3e
00000070: 1678 48be e3ef fc3c 055e 01bf f1cf 913d
00000080: 99ee 513e 3773 1ebf 780a ef3e cd4f fd3e
00000090: da46 c03e 8f6c 18bf 585a 083f f199 11bf
000000a0: 087f 8dbe 5379 0c3f 3503 6cbd 4e56 11bf
000000b0: 50fd e7be c714 9dbe f8fa d43d d022 ccbd
000000c0: 552f bdbc b6b4 67be c5f3 a7be 106a bdbe
000000d0: c44b b3be a909 f4bd 43b0 e5be a872 543f
000000e0: d55a a43e e5e8 263f 13f9 f5be 34be 293f
000000f0: ae44 bb3e 57e7 b23e 4e98 b13e c67a 85be
00000100: 33ea fbbd e223 d6be dc88 193f e737 79be
00000110: 1f7a 21bf 3007 febe abc4 123f ff21 013c
00000120: fe58 ba3e e8c7 2fbf a67f ad3e 2fd5 e4bc
00000130: 12fc 03be 09ff 1a3f ddb6 103e 4b40 89be
00000140: 5333 e73e 4543 cd3d 108f f3bd 1696 c63e
00000150: d130 12bf bcc5 923e 6c88 7bbe 6e42 213f
00000160: 90ed 8dbd cea8 b53e 39e0 343f 606c 04be
00000170: 6dc2 d83e d12a 583e e019 21bf b1d2 2abf
00000180: 0793 d63e 475f 7bbe 665f 75be 360f 7fbd
00000190: 28f7 72be a6ba a1be dc38 2b3f 3f9b b4be
000001a0: 6077 013f 4f15 3dbe f209 63be 99c6 f63e
000001b0: 5d39 8fbe 7e78 4ebf 52ec 1dbf cf79 14be
000001c0: 3aec e93e d0f7 063e 34bc 09bf f996 09bf
000001d0: 62d9 90bb 4b5e 0ebf 0209 8abe f06e e2be
000001e0: 00a2 923e 20e1 783e 851f 023f a17d 17bf
000001f0: 4b15 f6bd 1633 fbbe 9f60 8b3e 9793 1a3d
00000200: 802d 0fbf 9f35 fc3c 953f edbe b1b7 453d
00000210: 9382 0abc c346 6a3d 1589 2bbe adaa 173f
00000220: 5d4d 2e3f a844 023e 6578 ff3e 6b28 333e
00000230: 01f6 ac3e 0356 ab3d 1f7b 4e3e 8230 1bbd
00000240: 3057 b2bd c4f2 51be c530 193f 47b1 a1bd
00000250: 04dd 5ebe 2040 fd3e 0f8b 2e3f b994 e83e
00000260: c9cd 523e 1ed8 793e 8085 a03e c73f 05be
00000270: cc91 1dbe c6ba 4d3f 0a0e 623e 03aa afbe
00000280: 6ca5 343e fd1c a9be d006 f53e 90f0 1cbf
00000290: a447 c13e 4381 4c3e 80a4 12bf 40df 95bd
000002a0: 263c cf3e bc42 2dbf 0d4f d9be 8bd4 103f
000002b0: 8f91 f6be 877e 1a3d a74a 4abe 507d 313e
000002c0: 17f4 cbbe 5f4c 35bf 1351 b1be aa05 cfbe
000002d0: 783d 90bc dc74 d53c bc18 983e 52e6 4e3e
000002e0: f9ed 383f 88c0 b7bc 2b14 10be f970 d2be
000002f0: 0fd9 08bf 04c2 48bf 3e53 14be b29a 9ebe
00000300: 103e b03e 9f8f 0e3f 7efd cfbe 7697 963a
00000310: a4ec b73e 632b 0bbf bd5d 963e 38b0 e93b
00000320: 2a60 d83d 78cb 1f3f dec9 063f 7560 343e
00000330: 9417 f53e 83e7 d83d d48c d0bc 5c21 183f
00000340: 9aef 793d a1f7 d1bd 4139 703e 79f8 3fbe
00000350: 5a68 9cbe baed abbd 5dd5 f3be 3907 6f3e
00000360: a32a a03e 0b5e 85be 4d02 bd3d 928a 8dbe
00000370: 6bae cabe 305a 113f 89e6 b2be 1cb9 37bf
00000380: 02b8 3c3d 4cdc b7be fc69 05bf d9f4 0dbf
00000390: f469 4cbe 9d67 713d 811a a73d 8221 db3e
000003a0: 92af ea3e ece7 01bf bc6c 7cbe 0b49 b4be
000003b0: 3c22 663e 4e4b abbe 4704 fdbd 2ad8 94be
000003c0: 01df b9bd f150 da3b 8d57 fa3e ad0d d3bc
000003d0: ebc4 fe3e b0e0 0d3f 01a1 51bd 6bbc 903e
000003e0: 8cc6 82be 9e61 ab3d c1c9 153f 10c4 d33e
000003f0: b818 d43e d12b fdbd 4e56 8c3e 4163 dcbd
-0.24121217 -0.79748565 0.33702785 0.25899062 -0.36590952 0.555514 0.54201764 0.12516046
0.71699214 0.11544921 -0.008719509 -0.6795968 -0.18981886 0.5257673 -0.52110535 0.4974689
-0.29112917 0.7056132 0.029310856 -0.1992773 -0.1610459 0.435989 -0.30035326 0.07875695
-0.3645171 0.54214203 -0.27972713 0.23411517 -0.19577059 0.030876106 -0.5053409 0.0711974
0.20501174 -0.61894554 0.46687675 0.49474946 0.37554055 -0.5954065 0.53262854 -0.5687552
-0.2763598 0.54872626 -0.057620246 -0.56772316 -0.4531045 -0.30679914 0.10399431 -0.099675775
-0.023093859 -0.2262753 -0.3280317 -0.36994982 -0.35018742 -0.11915905 -0.4486104 0.8298745
0.3210055 0.6519912 -0.4804159 0.6630585 0.36575836 0.34942123 0.34686512 -0.2607023
-0.12300529 -0.4182425 0.59974456 -0.24337731 -0.63076967 -0.4961486 0.5733134 0.00788164
0.3639602 -0.6866441 0.3388645 -0.027933685 -0.12889126 0.605454 0.14132257 -0.26806864
0.45156345 0.10022596 -0.118925214 0.3878638 -0.5710574 0.28666484 -0.2456376 0.6299199
-0.06930077 0.3548035 0.70654637 -0.12931967 0.42335835 0.21110083 -0.6293011 -0.6672774
0.41909048 -0.24548064 -0.23962173 -0.062270366 -0.23727095 -0.31587714 0.66883636 -0.35274693
0.50572777 -0.1846516 -0.22171763 0.48198393 -0.27973452 -0.80652606 -0.6168872 -0.14499591
0.4568804 0.1318047 -0.538028 -0.5374599 -0.0044204453 -0.5561263 -0.26959997 -0.44225264
0.2863922 0.24304628 0.50829345 -0.5917607 -0.1201578 -0.49062413 0.27222154 0.03773841
-0.559288 0.030787287 -0.46337572 0.048270885 -0.008453983 0.05719639 -0.16751511 0.59244806
0.68086797 0.12721503 0.4989654 0.17495887 0.33781436 0.08366015 0.20164154 -0.037888058
-0.08708036 -0.20502764 0.5984004 -0.07895141 -0.21763998 0.49462986 0.68180937 0.45425966
0.20586313 0.24398848 0.31351852 -0.1301261 -0.15387648 0.8036312 0.22075668 -0.34309396
0.17641228 -0.3302993 0.4785676 -0.6130457 0.3774997 0.19971184 -0.5728226 -0.07317972
0.40475577 -0.67679954 -0.42443123 0.56574315 -0.48157927 0.037718322 -0.1975504 0.17332959
-0.39834663 -0.7081966 -0.34632167 -0.4043401 -0.017607436 0.0260567 0.2970637 0.20205048
0.7223812 -0.022430673 -0.14070193 -0.41101816 -0.53456205 -0.78421044 -0.1448488 -0.30977398
0.3442235 0.556879 -0.40623087 0.0011489231 0.3592273 -0.5436308 0.29368392 0.0071316026
0.10565217 0.62419844 0.52651775 0.1761492 0.4786955 0.10591032 -0.025457777 0.594259
0.061019517 -0.102523096 0.2345934 -0.18747129 -0.30548364 -0.08394952 -0.4762372 0.23342599
0.3128253 -0.26048312 0.092289545 -0.27644783 -0.39586195 0.5677824 -0.3494151 -0.7176683
0.04607392 -0.3591026 -0.52114844 -0.5545173 -0.19962293 0.058936704 0.08159352 0.42799002
0.45837075 -0.5074451 -0.24650854 -0.35211977 0.22473997 -0.3345589 -0.123543315 -0.2907117
-0.09075738 0.006662481 0.4889492 -0.025763357 0.4975961 0.5542097 -0.051178936 0.28268752
-0.25542104 0.083682284 0.5851098 0.4136052 0.4142511 -0.12361873 0.27409595 -0.10761119

affine1.bias f4 [128]
00000000: 1987 b13e 73b8 aebe 3ced b53e c265 4abe
00000010: 464b 1b3f 9a88 fdbe 36eb 8fbe 3542 183c
00000020: 4103 c7be 9da0 61be 5491 02bf f606 20bf
00000030: 0dfb 9c3e cb92 913e efbb a0be 38fe ccbe
00000040: 5d74 bc3c 6504 28bf fa7a 01be 786f ca3e
00000050: 8f8a d7be 790c 013e 9a2f d93e ab3a a4be
00000060: 83a5 f5be 0833 ea3d b8f3 093f d9c7 38be
00000070: 1e67 2a3e 3ac8 32bf bdd7 6fbe c485 d63d
00000080: 6834 48be 0eff 2dbf 21a4 f73c fa9d 99bd
00000090: 9e81 b43d e562 28be 05d5 d63e a462 cf3e
000000a0: f33b 09bf 1395 edbd 36ac 893e 8830 9abe
000000b0: 0c6e 153d 546a 4e3e d126 71be 69f6 8c3e
000000c0: ecae b33e 95c3 803e 22c7 633e c810 4a3e
000000d0: 01bc 8a3d 2d56 1ebf bf03 3abd 5e35 133d
000000e0: 26d5 143e f4cc 31bf 5753 893e 8d0c 0abf
000000f0: ebe7 afbe ba27 6f3e 2a68 1ebf 197d 423d
00000100: 7484 82be bd3d fcbc 6a11 f8be f51f d33e
00000110: 64e4 34bf 2c8e a139 ec1d 253f 08e6 413e
00000120: 1e39 fdbd 0d78 d9be 4151 7dbe 407c 34bf
00000130: 00e7 013e eaa2 e03e 6692 cdbe de7b 2abe
00000140: 3f6b 8bbe 4234 c2be 03cb 4d3e 2692 fb3e
00000150: 1a94 803e 5c8c 23bf b9fb d83e c154 fe3e
00000160: e84c 33bf d11a 16bf e323 d0be c4db 11bf
00000170: 56f9 993e 2d86 93be 3a12 94be f7e4 e8be
00000180: 2256 263d 0dbf 0dbf 8464 413e caac f4bd
00000190: be7f 323e 03e3 c4be a5a2 d53c 7909 dcbd
000001a0: 087c 073d 550d 66be a21e f7be 809d 743e
000001b0: f243 b5bd 7405 cfbe 0607 633e 583e 3c3e
000001c0: 44e0 24be d10c 083f a9d6 963e ccdc d43e
000001d0: 704d 85be ae5f ab3e 16db 1ebf e4ba 3dbc
000001e0: 5684 c13e eb23 cabe 6254 493d 0de0 323d
000001f0: c469 fbbe 8e72 5abe 5f9a a0be b48c eebd
0.34673384 -0.341251 0.35532558 -0.1976538 0.60661733 -0.4951828 -0.2810914 0.009293129
-0.3886967 -0.22033925 -0.51003003 -0.6251062 0.30660287 0.28432307 -0.31393382 -0.40037704
0.023004705 -0.65631706 -0.12644568 0.3953817 -0.420979 0.12602414 0.4241913 -0.3207601
-0.47977838 0.11435515 0.5388751 -0.18044986 0.16640899 -0.6983677 -0.23422141 0.104747325
-0.19551241 -0.6796731 0.03022963 -0.07500835 0.08813785 -0.16443975 0.41959396 0.40504944
-0.536071 -0.11600699 0.268892 -0.3011515 0.036481902 0.20157748 -0.23549964 0.27531746
0.35094392 0.25149217 0.22243932 0.19732964 0.0677414 -0.61850244 -0.04541373 0.035939567
0.14534435 -0.6945336 0.26821396 -0.539254 -0.34356627 0.23354998 -0.6187769 0.047482584
-0.2549168 -0.030791158 -0.48450786 0.4123532 -0.70660996 0.0003081424 0.6449878 0.18935406
-0.1236441 -0.42474404 -0.24738027 -0.7050209 0.12685776 0.43874294 -0.40150756 -0.16648814
-0.2723026 -0.37930495 0.20096974 0.4913494 0.25112993 -0.63886046 0.4237955 0.49674037
-0.70039225 -0.5863467 -0.4065238 -0.5697596 0.3007304 -0.28813305 -0.28920156 -0.45487186
0.040609486 -0.55369645 0.18886 -0.119470194 0.17431542 -0.38454446 0.026078532 -0.10743994
0.03307727 -0.22466023 -0.48265558 0.23888206 -0.0885085 -0.40433848 0.22170648 0.18383157
-0.16101176 0.53144556 0.29460648 0.41574705 -0.26035643 0.33471435 -0.6205305 -0.011580203
0.37796277 -0.39480528 0.04915274 0.043670703 -0.4910413 -0.21332762 -0.31367776 -0.11647931

action_head.weight f4 [3, 128]
00000000: 7084 15be a563 593c 3098 66bd c714 93bd
00000010: 818a 88bd 13dd 193d a645 013e 09a0 afbd
00000020: 0f25 1b3d b27f 123d 463c 9dbc 334c af3c
00000030: 3232 bdbd 0654 fbbc 32ed f3bc cdbf 853d
00000040: 37ce e3bd 1004 55bd 12d1 8b3d 1088 2cbd
00000050: 45b3 4e3e 11ff 22be 8d25 08be 3a76 97bd
00000060: af50 9a3c b0bb fabc a4e8 0cbe 7a01 a4bc
00000070: a6d5 2ebd 90e6 e7ba 55bb 5e3d ac41 ce3d
00000080: 9c82 2abe af3d 9e3c 4113 85bd 0a6f 1e3e
00000090: 928e 3fbd a153 0dbe 7a59 ecbc 7f6d a6bd
000000a0: 6962 90bd f09f e4bd 460f bbbd ee2b 163d
000000b0: 5cfa 1ebe 50d1 df3d 70db aabc 82ec 21be
000000c0: 6b5e 00be 5d8d 58bc a99e 1bbe 7e91 133e
000000d0: 4eaf 5e3e e5a0 a23d 6c36 d9bd ee9d 5cbd
000000e0: 23be 163d 4b53 443e e048 0bbe ff44 913d
000000f0: 8ed7 66bd 6daa 773d 9812 cc3c ce8a 2d3d
00000100: d529 35bd 4b06 a5bd dcd5 8a3c 06eb 45bc
00000110: cfc5 a93c b1e5 08be 84b9 dcbc 308a 28bd
00000120: e177 81bd 6ca0 6cbc 73ed 303e 528c 8d3d
00000130: 3941 e33c 1511 c2bd 3644 433d c5af 8f3d
00000140: 1ba4 ae3d 942b 9c3d a0e9 3939 0a10 1dbd
00000150: 4e68 91bd 4e1c e83c 63b9 09be 7530 6abc
00000160: 5ec1 8f3d 400d dc3c ceed a4bd e287 4fbd
00000170: 90f6 bd3d 641b 69bd d2a9 3ebe f7d1 89bd
00000180: f0cc 1a3e a0e8 82bd 1c3d 00bd 3bd8 4e3d
00000190: e317 02bd 2542 3abd abad 153e 7ce8 5bbd
000001a0: 877c c93d 78ea 9c3c ee0b 83bd ca07 82bc
000001b0: e63e 013e 5f97 21bd f82d 4abb 542e b2bd
000001c0: cfb7 4d3c 475f 29be 7335 c7bd 33c0 dabd
000001d0: 10bf dd3c b956 d2bc e83e 5e3d 8c0e bdbd
000001e0: 9efe 58bd 8ad7 9abd b2ea 433d 46b9 99bd
000001f0: 92c5 573d 729b 94bd 471e 62bd e9e1 333d
00000200: 6d8f 0f3e 1d76 9abd 2a91 aa3d 5721 53bd
00000210: 0b24 e23d 253b 953c bf84 723c 1b32 113e
00000220: 5fba 85bd 41e3 773d b2df 27bc 5632 b1bd
00000230: dfe1 043e eb42 9b3d d9b6 b3bd 676e a8bd
00000240: 034d 04bc 44d6 84bd e213 6abd e4f0 2abd
00000250: 9504 4ebe 3e21 e23d 7fee 283e 46ec 113d
00000260: 530c 1d3d 6175 9f3d 47ab c43d 804c 023e
00000270: 3c8d 013b 7f20 88bc 7abd e4bc e365 02be
00000280: cac8 003e 1d35 713d 5453 1b3e d67c 41be
00000290: 1c3b 2cbe 7e32 f73d 5305 9b3d 9808 4e3d
000002a0: 3511 9fbd 36ee 263e 0e27 2f3e 2bbd 513e
000002b0: 8d97 223e c66c 4fbc 03bc 183d d77e 153e
000002c0: cf16 9b3d e9da 0e3e 08fe 393e 6481 45be
000002d0: 13fe 8dbd 8e68 41bd bf9b fd3d f855 2c3d
000002e0: bf8e d53b ba96 b3bd 3077 2a3e 3fb2 50bd
000002f0: 5d3a af3d bcab 3dbd ea62 1a3d 630e de3c
00000300: 504d 243e 98c9 1d3e 2851 f53b e1a5 6c3c
00000310: 3f2d ad3d deb9 dd3c a126 d33c eebd 203e
00000320: 53e1 63bd d219 48bb e4d1 dabd 6617 ad3d
00000330: 04d8 613d 1afa 9c3c 154c fabd 27dd 8e3d
00000340: 9fd4 f83c 76d4 51bd ec8e 143c c712 e23d
00000350: 3ee2 c23c c623 463b c62f 6d3d b23e b73d
00000360: ed6e 89bd 917a 8bbd 00c7 773d b7b8 083d
00000370: e3c3 03be e113 afbd 92c4 763e 6223 1b3e
00000380: 8ab8 16be 8045 5e3d fd70 663d 4b98 9bbd
00000390: 38d4 f33d 1287 0fbd dd3b 1dbe e909 423e
000003a0: ad65 343c 880b 12bd fbde 333d 80e7 b03d
000003b0: 047a f7ba aa7b 893c c56f 0f3d 2af6 e03d
000003c0: 1f4b 083c 3aee b63d 7aa2 9f3d 11dc ff3d
000003d0: 1dfc ad3d d8ab f03d fc76 aebc c9fb 003e
000003e0: 20f7 8ab9 a681 1f3d 551b 1cbd 7d83 333e
000003f0: efe3 26be 6fef 5f3d 2657 9c3c 5760 2f3d
-0.14601302 0.013268386 -0.05629748 -0.07181697 -0.066670425 0.03756435 0.12624225 -0.08575446
0.03787714 0.03576631 -0.01919378 0.02139864 -0.092380896 -0.030679714 -0.02977619 0.06530724
-0.11123317 -0.052005827 0.06826986 -0.042121947 0.20185573 -0.15917613 -0.13295574 -0.07395597
0.018837301 -0.030607074 -0.1376062 -0.020020235 -0.04268422 -0.0017692614 0.054377872 0.1007112
-0.16651386 0.019316522 -0.06497813 0.15472046 -0.046766825 -0.13801433 -0.02885126 -0.081263535
-0.0705002 -0.11163318 -0.091337726 0.03666299 -0.15525192 0.10928595 -0.02085659 -0.15812877
-0.12536018 -0.013217297 -0.15197243 0.1441097 0.21746561 0.079408444 -0.10606083 -0.05386155
0.036802422 0.19172399 -0.13602018 0.07093238 -0.056357913 0.060465265 0.02491121 0.042368703
-0.044229347 -0.08057841 0.01694768 -0.01207996 0.020724205 -0.1336887 -0.02694393 -0.04114741
-0.06321693 -0.014442544 0.1727808 0.069115296 0.027741062 -0.094759144 0.047672473 0.07015947
0.085273944 0.07625499 0.00017730007 -0.038345374 -0.07099973 0.02833381 -0.13449626 -0.01429378
0.07019304 0.026861787 -0.0805317 -0.050666697 0.09275544 -0.056910887 -0.18619469 -0.06729501
0.1511724 -0.06392026 -0.03130828 0.050499182 -0.03176106 -0.045473237 0.1461703 -0.05368851
0.09838205 0.019154772 -0.0639876 -0.015872855 0.1262165 -0.039451 -0.0030850153 -0.08700243
0.01255603 -0.16540252 -0.097269915 -0.1068119 0.027068645 -0.025676118 0.05425921 -0.0923129
-0.052977197 -0.07560642 0.047831245 -0.07506041 0.052678652 -0.07256211 -0.055204656 0.043916617
0.14019556 -0.075420596 0.08328469 -0.051545467 0.11042031 0.018216679 0.014802157 0.1417927
-0.06529688 0.06051946 -0.010246204 -0.08652179 0.12976788 0.07581123 -0.0877511 -0.082241826
-0.008075002 -0.064861804 -0.057147868 -0.041733637 -0.20118935 0.11041497 0.16497229 0.03562572
0.03834183 0.0778606 0.09602981 0.12724495 0.001976802 -0.016617058 -0.02792238 -0.12734179
0.12576595 0.058888543 0.15168506 -0.18895277 -0.16819423 0.120701775 0.07569375 0.050301164
-0.07766954 0.16301808 0.17104742 0.20482318 0.15878125 -0.012660211 0.037288677 0.14599167
0.0757271 0.13950695 0.18163311 -0.1928764 -0.069332264 -0.04721885 0.12383222 0.042074174
0.006517261 -0.08768983 0.16647029 -0.05095124 0.08556054 -0.046306357 0.037691988 0.02710647
0.16045117 0.15408933 0.007486481 0.0144438455 0.08455896 0.027066167 0.025775256 0.15697452
-0.055634808 -0.0030532968 -0.10684565 0.084517285 0.05513765 0.019162226 -0.12221543 0.06975775
0.030374823 -0.05122801 0.009067278 0.11038738 0.023789521 0.0030233725 0.05790689 0.08947505
-0.067106105 -0.06810487 0.060492516 0.033379283 -0.12867694 -0.085487135 0.24098423 0.15150216
-0.14718834 0.0542655 0.056260098 -0.07597407 0.11905712 -0.035040922 -0.15354867 0.18949093
0.0110105695 -0.03565553 0.043913823 0.08637905 -0.0018880968 0.0167826 0.0350187 0.10984452
0.0083186915 0.08932157 0.07794662 0.12493146 0.084953524 0.117515266 -0.02129697 0.12596048
-0.00026505534 0.038942 -0.038112003 0.17530628 -0.16297887 0.0546717 0.019084524 0.042816486

action_head.bias f4 [3]
00000000: 5572 acbc f5d1 c13d ba96 00bd
-0.021050612 0.09463874 -0.031393744

value_head.weight f4 [1, 128]
00000000: bff7 76bd 6b01 c1bc c3b6 afbd 899f d83c
00000010: 3825 66bd 0add 783d a4ad 153d 7298 96bd
00000020: be8f 113d 1030 8dbd a83e 31bd 0067 c9bc
00000030: fb19 313d 5843 363c 6d5a 69bd fdb5 263d
00000040: 052d 13bd 0537 6c3c 36b1 653d da95 6cbd
00000050: 4495 993c 46c3 4b3c 945f 8c3b a5a2 99bd
00000060: 023f 2fbd da65 b2bc 334b 0dbd 1fa5 8cbc
00000070: 5a65 e0ba e4dc 893c a558 243d c404 73bb
00000080: 6415 443d 9619 fdbc f6fe a4bd 9ba7 3a3d
00000090: 1b8e 363d 8234 80bd 08dc 613d 24a7 b7bd
000000a0: c10b 98ba 8aeb 873c 7a44 97bd 54a3 bb3d
000000b0: c721 183d 820f 723d 640f 59bd aea5 3fbd
000000c0: aa36 7cbc d967 2e3c 3e57 b4bb a284 693c
000000d0: e14a dd3d 3847 35bd 2a6c ed3c 5a32 003d
000000e0: 7864 993c cc50 39bd 7d79 d2bc fc17 11be
000000f0: 83ea 933d 5294 b8bb af26 7e3d fa99 523d
00000100: 5cc7 8fba d08a 3aba 686b 84bd 36dd 4e3d
00000110: 5389 6dbd 521d 12be bc04 afbd fc02 833a
00000120: c95e 243d 8efd 26bd 5b18 cbbc 948c 18bd
00000130: 0f9c 96bc b0b0 183d 3ecc 64bd cf51 9bbc
00000140: 80de af3d c591 4b3a 585d 6d3a 9c78 97bd
00000150: ab11 7d3c 8545 26bd 61af ccbc 80da 76bc
00000160: 59ac 0ebe 7e39 3a3b 995b 3cbc 5b8f 783d
00000170: 22b7 183d 6c5f 94bd 263f 503c d89d a53d
00000180: 3de7 a33d 3e8c 563d c524 02bb 3616 e93d
00000190: aa71 cb3b 3002 61bd b612 c53d 603e 1a3d
000001a0: 98ba b9ba e937 9f3c c695 a63d c6ff b7bd
000001b0: 8bae 073d acef 96bd b62c f9ba acc7 f1bc
000001c0: 7480 3b3d acf6 53bb 1c01 96bd 9867 c63b
000001d0: 3b7b 3e3c 8aa1 3c3d fec7 8abd c8ac 03bc
000001e0: 98c6 46bd 37f7 1dbd c6cb 503e 642b a63a
000001f0: 1a33 3dbd 47e5 b03d 0a47 6cbd 7647 553d
-0.060294863 -0.023560246 -0.08579781 0.02644326 -0.05618784 0.060757674 0.03654255 -0.073532954
0.035537474 -0.06893933 -0.043272644 -0.024585247 0.043237668 0.011124454 -0.056971002 0.0407009
-0.035931606 0.014417415 0.056077205 -0.057760097 0.018747933 0.0124366935 0.0042838547 -0.07501725
-0.0427847 -0.021777082 -0.034495544 -0.01716858 -0.0017120049 0.016828962 0.0401236 -0.0037081698
0.047871962 -0.03089599 -0.080564424 0.045569997 0.044569116 -0.06260015 0.05514148 -0.089674264
-0.0011600183 0.016591806 -0.07386108 0.09162012 0.037141588 0.05909682 -0.052993193 -0.046788864
-0.015393892 0.010644876 -0.005503564 0.0142528135 0.10805298 -0.044257373 0.02898224 0.03129802
0.018724665 -0.04524307 -0.025692696 -0.14169306 0.07222464 -0.0056329155 0.06204861 0.051416375
-0.0010969448 -0.00071160216 -0.064657986 0.050503932 -0.05799229 -0.14268997 -0.08545825 0.0009995396
0.040129457 -0.040769152 -0.024791887 -0.03724344 -0.018384961 0.037277877 -0.055858843 -0.018959908
0.085873604 0.0007765557 0.0009054742 -0.07396051 0.015446107 -0.040593643 -0.02498597 -0.015066743
-0.13932933 0.0028415616 -0.011496448 0.06068359 0.037284024 -0.07244763 0.012710368 0.08086747
0.080030896 0.05237984 -0.0019858342 0.113811895 0.006208618 -0.054933727 0.096227095 0.03765714
-0.0014169989 0.01943584 0.08134036 -0.08984332 0.03312544 -0.073699325 -0.0019010517 -0.029514156
0.0457768 -0.0032343073 -0.0732443 0.00605483 0.01162606 0.046052493 -0.06776427 -0.0080368
-0.048529238 -0.03856584 0.20390233 0.0012677726 -0.046191312 0.08637481 -0.057684936 0.052070104
