ActorCritic/MountainCar-v0_actor_critic_model_5.pth (torch, 6624 bytes, 5 tensors)

affine1.weight f4 [128, 2]
-0.24941614 -0.7715356 0.33702785 0.25899062 -0.36032325 0.50452846 0.54201764 0.12516046
0.710196 0.100703485 -0.008719509 -0.6795968 -0.23508151 0.57545376 -0.517756 0.46189043
-0.29112917 0.7056132 0.029310856 -0.1992773 -0.1610459 0.435989 -0.30035326 0.07875695
-0.4343323 0.5447443 -0.37141716 0.1963452 -0.19577059 0.030876106 -0.51031554 0.10504222
0.12203044 -0.59567684 0.46687675 0.49474946 0.37554055 -0.5954065 0.53377837 -0.6066482
-0.31714562 0.57821065 -0.16674621 -0.53682345 -0.55333495 -0.30773568 0.10399431 -0.099675775
-0.023093859 -0.2262753 -0.38904864 -0.41425338 -0.39618525 -0.0941504 -0.47374162 0.7887817
0.29049018 0.6057136 -0.4804159 0.6630585 0.36575836 0.34942123 0.26225376 -0.19264212
-0.16875681 -0.436531 0.59974456 -0.24337731 -0.62557733 -0.5344143 0.6098697 -0.028657712
0.28258726 -0.6847351 0.37536559 0.008565472 -0.19422202 0.57386684 0.14952348 -0.31268921
0.45156345 0.10022596 -0.2267116 0.3352602 -0.57100326 0.30292922 -0.2976071 0.60473037
-0.13260572 0.38156143 0.62691206 -0.073756374 0.42335835 0.21110083 -0.6519963 -0.6696988
0.3520106 -0.23116401 -0.3448803 -0.108415596 -0.34632814 -0.2958641 0.59032464 -0.32398334
0.44569838 -0.15740524 -0.22171763 0.48198393 -0.34958303 -0.7657967 -0.6923644 -0.161113
0.42179096 0.10045272 -0.569656 -0.48168713 -0.056135904 -0.5546464 -0.30610114 -0.40575153
0.2863922 0.24304628 0.42114124 -0.6118068 -0.1201578 -0.49062413 0.22970818 0.09274952
-0.63870335 -0.019008007 -0.5726644 0.015936764 -0.008453983 0.05719639 -0.23463476 0.5643945
0.68086797 0.12721503 0.45876092 0.17816442 0.34322986 0.031383872 0.11314433 -0.04309066
-0.08708036 -0.20502764 0.5984004 -0.07895141 -0.29109854 0.5184859 0.68180937 0.45425966
0.1988113 0.18661213 0.24368945 -0.102044925 -0.19037765 0.76713 0.22075668 -0.34309396
0.17641228 -0.3302993 0.4785676 -0.6130457 0.29359397 0.16815582 -0.57386863 -0.11662813
0.33263776 -0.62548566 -0.42443123 0.56574315 -0.54957455 0.05908294 -0.29194027 0.12549855
-0.4348478 -0.67169577 -0.34632167 -0.4043401 -0.017607436 0.0260567 0.2970637 0.20205048
0.63892204 0.022060461 -0.14070193 -0.41101816 -0.6142046 -0.78210217 -0.18134992 -0.34627372
0.28950483 0.5915312 -0.40623087 0.0011489231 0.31363317 -0.5809862 0.25718284 0.043632656
-0.005638281 0.5858439 0.52651775 0.1761492 0.4244821 0.16590664 -0.09586303 0.5662074
-0.009109805 -0.04374578 0.2345934 -0.18747129 -0.30548364 -0.08394952 -0.46865717 0.17957763
0.26600626 -0.3053696 0.092289545 -0.27644783 -0.50645536 0.5352356 -0.3961967 -0.7244179
0.04607392 -0.3591026 -0.6347993 -0.5496629 -0.19865154 0.027438104 -0.029124016 0.46134773
0.45837075 -0.5074451 -0.31492212 -0.38885686 0.22473997 -0.3345589 -0.18752564 -0.26375926
-0.10965596 -0.0065173125 0.4889492 -0.025763357 0.44581446 0.5927512 -0.1395537 0.28571272
-0.2919222 0.047181237 0.5851098 0.4136052 0.4142511 -0.12361873 0.27409595 -0.10761119
00000000: f266 7fbe 5b83 45bf ea8e ac3e 6b9a 843e
00000010: 4a7c b8be c728 013f abc1 0a3f 102a 003e
00000020: 68cf 353f a13d ce3d 45dc 0ebc 0efa 2dbf
00000030: 35b9 70be f050 133f a88b 04bf e77c ec3e
00000040: e20e 95be 11a3 343f 521d f03c 590f 4cbe
00000050: 37e9 24be f339 df3e e7c7 99be 534b a13d
00000060: ce60 debe 5d74 0b3f 642a bebe b70e 493e
00000070: 1678 48be e3ef fc3c 0aa4 02bf 6020 d73d
00000080: 18eb f93d 477e 18bf 780a ef3e cd4f fd3e
00000090: da46 c03e 8f6c 18bf b3a5 083f 4c4d 1bbf
000000a0: e960 a2be 9d05 143f 85bf 2abe 436d 09bf
000000b0: 5ca7 0dbf 888f 9dbe f8fa d43d d022 ccbd
000000c0: 552f bdbc b6b4 67be 6231 c7be 0519 d4be
000000d0: cbd8 cabe edd1 c0bd 438e f2be 99ed 493f
000000e0: 21bb 943e 0c10 1b3f 13f9 f5be 34be 293f
000000f0: ae44 bb3e 57e7 b23e 2046 863e fa43 45be
00000100: 96ce 2cbe fe80 dfbe dc88 193f e737 79be
00000110: d625 20bf 60cf 08bf 6c20 1c3f 94c3 eabc
00000120: 47af 903e cd4a 2fbf eb2f c03e 3256 0c3c
00000130: 23e2 46be f0e8 123f af1c 193e cd18 a0be
00000140: 5333 e73e 4543 cd3d 1627 68be 3aa7 ab3e
00000150: 452d 12bf 8a19 9b3e f55f 98be 9ccf 1a3f
00000160: cbc9 07be 055c c33e 4f7d 203f 950d 97bd
00000170: 6dc2 d83e d12a 583e 3be9 26bf 6171 2bbf
00000180: bc3a b43e 42b6 6cbe 2794 b0be ff08 debd
00000190: ec51 b1be 807b 97be 841f 173f 25e1 a5be
000001a0: 9432 e43e d72e 21be f209 63be 99c6 f63e
000001b0: 8cfc b2be 410b 44bf cb3e 31bf cefa 24be
000001c0: fcf4 d73e 28ba cd3d fad4 11bf b29f f6be
000001d0: c3ee 65bd 4efd 0dbf 4ab9 9cbe aabe cfbe
000001e0: 00a2 923e 20e1 783e d39f d73e 5f9f 1cbf
000001f0: 4b15 f6bd 1633 fbbe 9f38 6b3e 76f3 bd3d
00000200: 1082 23bf aeb6 9bbc 229a 12bf d18d 823c
00000210: 9382 0abc c346 6a3d 1844 70be 287c 103f
00000220: 5d4d 2e3f a844 023e b6e2 ea3e bc70 363e
00000230: d3bb af3e 608c 003d 37b8 e73d d57f 30bd
00000240: 3057 b2bd c4f2 51be c530 193f 47b1 a1bd
00000250: de0a 95be 7ebb 043f 0f8b 2e3f b994 e83e
00000260: 3095 4b3e 4017 3f3e ba89 793e eefc d0bd
00000270: 5cf2 42be a262 443f 0a0e 623e 03aa afbe
00000280: 6ca5 343e fd1c a9be d006 f53e 90f0 1cbf
00000290: f351 963e 0a31 2c3e 0ee9 12bf bbda eebd
000002a0: 7f4f aa3e d41f 20bf 0d4f d9be 8bd4 103f
000002b0: ebb0 0cbf f400 723d 3279 95be b182 003e
000002c0: 5fa4 debe 41f4 2bbf 1351 b1be aa05 cfbe
000002d0: 783d 90bc dc74 d53c bc18 983e 52e6 4e3e
000002e0: 6590 233f 24b8 b43c 2b14 10be f970 d2be
000002f0: 833c 1dbf d937 48bf cbb3 39be ca4a b1be
00000300: fa39 943e 976e 173f 7efd cfbe 7697 963a
00000310: 8794 a03e 83bb 14bf 78ad 833e 28b8 323d
00000320: 54c1 b8bb def9 153f dec9 063f 7560 343e
00000330: b855 d93e 6ee3 293e d653 c4bd f8f2 103f
00000340: 4b41 15bc c62e 33bd 4139 703e 79f8 3fbe
00000350: 5a68 9cbe baed abbd d5f3 efbe 33e3 373e
00000360: f931 883e 6759 9cbe 4d02 bd3d 928a 8dbe
00000370: 0fa7 01bf 3305 093f 4bda cabe 7473 39bf
00000380: 02b8 3c3d 4cdc b7be 3582 22bf b5b6 0cbf
00000390: 4f6b 4bbe e0c5 e03c 7d95 eebc c535 ec3e
000003a0: 92af ea3e ece7 01bf 793d a1be 3f18 c7be
000003b0: 3c22 663e 4e4b abbe b906 40be 740b 87be
000003c0: 4e93 e0bd 2e8f d5bb 8d57 fa3e ad0d d3bc
000003d0: cb41 e43e 8bbe 173f 2ae7 0ebe f048 923e
000003e0: d476 95be 1d41 413d c1c9 153f 10c4 d33e
000003f0: b818 d43e d12b fdbd 4e56 8c3e 4163 dcbd

affine1.bias f4 [128]
0.35421264 -0.341251 0.3485636 -0.1976538 0.61316305 -0.4951828 -0.23640229 0.0049710507
-0.3886967 -0.22033925 -0.51003003 -0.6251062 0.37801492 0.37690103 -0.31393382 -0.39358577
0.10442722 -0.65631706 -0.12644568 0.3931298 -0.37893125 0.23570842 0.5257543 -0.3207601
-0.47977838 0.17596656 0.5852122 -0.1559151 0.19668409 -0.6983677 -0.23422141 0.18561111
-0.14754708 -0.6796731 0.023968454 -0.03810781 0.16502695 -0.1279386 0.486415 0.39558932
-0.536071 -0.0064388756 0.26789096 -0.24707907 0.10148984 0.28521234 -0.23549964 0.29819402
0.41911444 0.3576752 0.33299828 0.2733345 0.11790396 -0.61850244 0.025812846 0.1125443
0.17896295 -0.6621805 0.32129022 -0.50275284 -0.34356627 0.31871668 -0.6187769 0.091391444
-0.17412962 0.0800074 -0.48450786 0.4807891 -0.70660996 0.007609021 0.6382774 0.27907342
-0.1236441 -0.42474404 -0.1723509 -0.7050209 0.13220859 0.5099092 -0.3650064 -0.16648814
-0.2723026 -0.37930495 0.28512493 0.4913289 0.32331374 -0.63886046 0.49252805 0.5925079
-0.6638911 -0.5863467 -0.4065238 -0.5697596 0.3797173 -0.28813305 -0.20572396 -0.41837072
0.10061222 -0.55369645 0.2346344 -0.08296903 0.28634053 -0.38454446 0.0766547 -0.03644469
0.104640886 -0.22466023 -0.48265558 0.23012733 -0.043554198 -0.40433848 0.3325657 0.23097765
-0.16101176 0.64609176 0.29260758 0.5268932 -0.26035643 0.40465942 -0.6205305 0.053070854
0.3957644 -0.39480528 0.08029104 0.13333258 -0.45454013 -0.21332762 -0.31367776 -0.11647931
00000000: 5c5b b53e 73b8 aebe ee76 b23e c265 4abe
00000010: 41f8 1c3f 9a88 fdbe 7113 72be 32e4 a23b
00000020: 4103 c7be 9da0 61be 5491 02bf f606 20bf
00000030: 2c8b c13e 2cf9 c03e efbb a0be 1384 c9be
00000040: f0dd d53d 6504 28bf fa7a 01be 4f48 c93e
00000050: 4703 c2be 8c5d 713e d597 063f ab3a a4be
00000060: 83a5 f5be 9430 343e 77d0 153f 35a8 1fbe
00000070: 8e67 493e 3ac8 32bf bdd7 6fbe d710 3e3e
00000080: 9516 17be 0eff 2dbf 7e59 c43c ef16 1cbd
00000090: d3fc 283e 5602 03be 630b f93e af8a ca3e
000000a0: f33b 09bf 34fd d2bb 0129 893e 4c02 7dbe
000000b0: e8d9 cf3d 5a07 923e d126 71be e3ac 983e
000000c0: 2b96 d63e 3421 b73e c07e aa3e 80f2 8b3e
000000d0: a277 f13d 2d56 1ebf 7675 d33c a07d e63d
000000e0: 1042 373e a984 29bf 2780 a43e 69b4 00bf
000000f0: ebe7 afbe d52e a33e 2a68 1ebf 702b bb3d
00000100: 094f 32be ebda a33d 6a11 f8be fd29 f63e
00000110: 64e4 34bf 1855 f93b 2666 233f b6e2 8e3e
00000120: 1e39 fdbd 0d78 d9be c17c 30be 407c 34bf
00000130: b061 073e 6989 023f 1ee2 babe de7b 2abe
00000140: 3f6b 8bbe 4234 c2be e5fb 913e 768f fb3e
00000150: 6189 a53e 5c8c 23bf a32c fc3e 99ae 173f
00000160: c4f4 29bf d11a 16bf e323 d0be c4db 11bf
00000170: 4e6a c23e 2d86 93be 4da9 52be b034 d6be
00000180: c80d ce3d 0dbf 0dbf 0044 703e abeb a9bd
00000190: 3a9b 923e 03e3 c4be 24fd 9c3d 0747 15bd
000001a0: f64d d63d 550d 66be a21e f7be 80a6 6b3e
000001b0: e365 32bd 7405 cfbe 0d46 aa3e 6885 6c3e
000001c0: 44e0 24be 4566 253f a9d0 953e 79e2 063f
000001d0: 704d 85be 852f cf3e 16db 1ebf d360 593d
000001e0: a2a1 ca3e eb23 cabe a16f a43d 5688 083e
000001f0: 7cb9 e8be 8e72 5abe 5f9a a0be b48c eebd

action_head.weight f4 [3, 128]
-0.14649336 0.013268386 -0.059671555 -0.07181697 -0.09619545 0.03756435 0.10600558 -0.081323355
0.03787714 0.03576631 -0.01919378 0.02139864 -0.09507814 -0.030841572 -0.02977619 0.029437738
-0.09217993 -0.052005827 0.06826986 -0.07358864 0.16545197 -0.14644337 -0.13571057 -0.07395597
0.018837301 -0.021730375 -0.13974406 -0.0040385737 -0.07206367 -0.0017692614 0.054377872 0.04607278
-0.1291438 0.019316522 -0.057575315 0.11821767 -0.09053732 -0.10151358 -0.034357887 -0.08822876
-0.0705002 -0.08305342 -0.092198715 0.027234413 -0.1562009 0.05338712 -0.02085659 -0.1558272
-0.13013506 -0.006933059 -0.14775726 0.08985433 0.17042266 0.079408444 -0.0904877 -0.047713827
0.02407488 0.15524124 -0.13480426 0.034431223 -0.056357913 0.022654641 0.02491121 0.008022869
-0.013106181 -0.06892473 0.01694768 -0.017030526 0.020724205 -0.12101464 -0.037915036 -0.044017307
-0.06321693 -0.014442544 0.16217695 0.069115296 0.010816269 -0.10470412 0.011171304 0.07015947
0.085273944 0.07625499 0.00876529 -0.040009923 -0.08917226 0.02833381 -0.13478026 -0.013079079
0.03369188 0.026861787 -0.0805317 -0.050666697 0.023130678 -0.056910887 -0.15168896 -0.030794576
0.10761172 -0.06392026 -0.03296041 0.013998025 -0.023442976 -0.045473237 0.10939157 -0.03025696
0.06907895 0.019154772 -0.0639876 -0.016273968 0.08131037 -0.039451 0.002422579 -0.082398176
0.01255603 -0.1643908 -0.099816054 -0.10583332 0.027068645 -0.026510842 0.05425921 -0.076233335
-0.056286253 -0.07560642 0.011508006 -0.071121395 0.016177494 -0.07256211 -0.055204656 0.043916617
0.13499498 -0.075420596 0.077656865 -0.051545467 0.13596913 0.018216679 0.0054530483 0.12439233
-0.06529688 0.06051946 -0.010246204 -0.08652179 0.1232724 0.06817125 -0.0877511 -0.047682628
-0.011315851 -0.064861804 -0.057147868 -0.008207141 -0.1646086 0.093181685 0.16045444 0.03562572
0.03834183 0.06222598 0.09083752 0.08818304 0.016682165 -0.016617058 -0.02792238 -0.08126826
0.08031977 0.058888543 0.13499023 -0.15244766 -0.12132144 0.084200844 0.07361033 0.054406643
-0.07766954 0.1297347 0.16200711 0.14684558 0.14792967 0.021682657 0.037288677 0.1359062
0.080274925 0.1264089 0.17047907 -0.13786195 -0.024239313 -0.04721885 0.10199366 0.02629229
0.01217482 -0.051219888 0.16090935 -0.01445008 0.08556054 -0.0025791638 0.037691988 0.042438846
0.119892865 0.1334334 0.007486481 0.011594142 0.08455896 0.014152386 0.033541437 0.15790784
-0.055634808 -0.0030532968 -0.13686867 0.084517285 0.06616251 0.026882572 -0.085714266 0.06975775
0.030374823 -0.05122801 0.00029264763 0.10427186 0.050948475 0.0030233725 0.049977265 0.081426896
-0.030604953 -0.06810487 0.060492516 0.033379283 -0.07317176 -0.085487135 0.18874872 0.11500143
-0.12624575 0.0542655 0.06661889 -0.039472908 0.104574814 -0.035040922 -0.113936886 0.15645519
0.033510435 -0.03565553 0.043913823 0.0775779 0.043103125 0.0167826 0.020754095 0.098640084
0.0083186915 0.08126898 0.073103234 0.11712279 0.084953524 0.11245194 -0.02129697 0.10395561
-0.0034838156 0.038942 -0.0016676635 0.16249079 -0.1264777 0.0546717 0.019084524 0.042816486
00000000: 5b02 16be a563 593c 296a 74bd c714 93bd
00000010: 1f02 c5bd 13dd 193d 7419 d93d dc8c a6bd
00000020: 0f25 1b3d b27f 123d 463c 9dbc 334c af3c
00000030: 54b8 c2bd 77a7 fcbc 32ed f3bc 6927 f13c
00000040: d5c8 bcbd 1004 55bd 12d1 8b3d a4b5 96bd
00000050: 3e6c 293e 40f5 15be b6f7 0abe 3a76 97bd
00000060: af50 9a3c e603 b2bc 1119 0fbe 0356 84bb
00000070: 1e96 93bd 90e6 e7ba 55bb 5e3d d0b6 3c3d
00000080: 463e 04be af3d 9e3c 18d4 6bbd 1b1c f23d
00000090: a16b b9bd 5ae6 cfbd dbba 0cbd 48b1 b4bd
000000a0: 6962 90bd e917 aabd aed2 bcbd b41a df3c
000000b0: 21f3 1fbe 74ac 5a3d 70db aabc 2a91 1fbe
000000c0: 2042 05be b72e e3bb ae4d 17be 8c05 b83d
000000d0: 4783 2e3e e5a0 a23d 9e51 b9bd 936f 43bd
000000e0: af38 c53c 8ff7 1e3e 210a 0abe c107 0d3d
000000f0: 8ed7 66bd 3a96 b93c 9812 cc3c 5a72 033c
00000100: 4fbb 56bc 6928 8dbd dcd5 8a3c 9a83 8bbc
00000110: cfc5 a93c 86d6 f7bd cc4c 1bbd 7e4b 34bd
00000120: e177 81bd 6ca0 6cbc b711 263e 528c 8d3d
00000130: b836 313c 1d6f d6bd d807 373c c5af 8f3d
00000140: 1ba4 ae3d 942b 9c3d 4a9c 0f3c 72e1 23bd
00000150: f29f b6bd 4e1c e83c d603 0abe a249 56bc
00000160: 7f00 0a3d 400d dc3c ceed a4bd e287 4fbd
00000170: 8c7c bd3c 641b 69bd 5a54 1bbe e844 fcbc
00000180: 8963 dc3d a0e8 82bd 7f01 07bd f957 653c
00000190: 7c0b c0bc 2542 3abd b008 e03d 72dd f7bc
000001a0: 4479 8d3d 78ea 9c3c ee0b 83bd fc50 85bc
000001b0: 0d86 a63d 5f97 21bd 22c4 1e3b 60c0 a8bd
000001c0: cfb7 4d3c 1056 28be 5c6c ccbd 24bf d8bd
000001d0: 10bf dd3c 442d d9bc e83e 5e3d 3920 9cbd
000001e0: 6a8c 66bd 8ad7 9abd 138c 3c3c 18a8 91bd
000001f0: aa86 843c 729b 94bd 471e 62bd e9e1 333d
00000200: 203c 0a3e 1d76 9abd 900a 9f3d 5721 53bd
00000210: 7e3b 0b3e 253b 953c 7caf b23b 68c1 fe3d
00000220: 5fba 85bd 41e3 773d b2df 27bc 5632 b1bd
00000230: 3d76 fc3d 5e9d 8b3d d9b6 b3bd dc4e 43bd
00000240: 1e66 39bc 44d6 84bd e213 6abd 3f77 06bc
00000250: 288f 28be 0ad6 be3d 2b4e 243e 46ec 113d
00000260: 530c 1d3d abe0 7e3d 0609 ba3d 4f99 b43d
00000270: 09a9 883c 7f20 88bc 7abd e4bc f96f a6bd
00000280: b17e a43d 1d35 713d e13a 0a3e 3d1b 1cbe
00000290: 6077 f8bd 7e71 ac3d 03c1 963d 80d9 5e3d
000002a0: 3511 9fbd 2cd9 043e 31e5 253e b05e 163e
000002b0: e07a 173e d49f b13c 03bc 183d ff2a 0b3e
000002c0: 2e67 a43d 5671 013e 1192 2e3e af2b 0dbe
000002d0: 8691 c6bc 8e68 41bd 0de2 d03d ee62 d73c
000002e0: e578 473c f2cb 51bd 6cc5 243e 07c0 6cbc
000002f0: 5d3a af3d 3007 29bb ea62 1a3d 5bd4 2d3d
00000300: 648a f53d c4a2 083e 2851 f53b 5bf5 3d3c
00000310: 3f2d ad3d 69df 673c bf62 093d 98b2 213e
00000320: 53e1 63bd d219 48bb 4d27 0cbe 6617 ad3d
00000330: 3680 873d d738 dc3c f68a afbd 27dd 8e3d
00000340: 9fd4 f83c 76d4 51bd 806e 9939 7c8c d53d
00000350: 59af 503d c623 463b f6b4 4c3d 25c3 a63d
00000360: 3db7 fabc 917a 8bbd 00c7 773d b7b8 083d
00000370: 13db 95bd e113 afbd 5847 413e df85 eb3d
00000380: 9146 01be 8045 5e3d 7c6f 883d 58ae 21bd
00000390: 522b d63d 1287 0fbd be57 e9bd ca35 203e
000003a0: 3d42 093d 880b 12bd fbde 333d 29e1 9e3d
000003b0: e78c 303d aa7b 893c 7e04 aa3c d003 ca3d
000003c0: 1f4b 083c 5a70 a63d 26b7 953d 13de ef3d
000003d0: 1dfc ad3d 344d e63d fc76 aebc aee6 d43d
000003e0: ba50 64bb a681 1f3d 8095 daba fc63 263e
000003f0: 5f83 01be 6fef 5f3d 2657 9c3c 5760 2f3d

action_head.bias f4 [3]
-0.029179983 0.09740605 -0.023615206
00000000: dc0a efbc d37c c73d ad74 c1bc

value_head.weight f4 [1, 128]
-0.02926322 -0.023560246 -0.05409139 0.02644326 -0.02937447 0.060757674 -0.009361932 -0.04820251
0.035537474 -0.06893933 -0.043272644 -0.024585247 0.08709056 0.053734083 -0.056971002 0.050860677
0.04001824 0.014417415 0.056077205 -0.042158917 -0.032949455 0.04009878 0.04612636 -0.07501725
-0.0427847 0.0066752993 -0.00083156815 -0.009258663 -0.0045278426 0.016828962 0.0401236 0.07013785
0.038121115 -0.03089599 -0.05284033 0.009031984 0.11473238 -0.026098996 0.099633 -0.061378133
-0.0011600183 0.029056912 -0.042099476 0.05635389 0.096468754 0.039753694 -0.052993193 -0.014467794
0.009636926 0.04300961 0.025226507 0.060923018 0.13776514 -0.044257373 0.08218794 0.075416625
-0.011025632 -0.011084316 0.0027450414 -0.105191894 0.07222464 0.05773837 0.06204861 0.016024444
0.015834035 0.02704017 -0.064657986 0.09466412 -0.05799229 -0.122697875 -0.053820208 0.052930266
0.040129457 -0.040769152 0.03570093 -0.03724344 -0.03044113 0.08553307 -0.019357681 -0.018959908
0.085873604 0.0007765557 0.01761912 -0.04025468 0.07867532 -0.040593643 0.008337193 0.018192198
-0.10282817 0.0028415616 -0.011496448 0.06068359 0.09261602 -0.07244763 0.065891154 0.04436675
0.04340076 0.05237984 0.003674523 0.07731073 0.03233918 -0.054933727 0.07897909 0.019936118
0.06909922 0.01943584 0.08134036 -0.05916699 -0.011885553 -0.073699325 0.029561704 0.00022508157
0.0457768 0.03093656 -0.043661345 0.0378623 0.01162606 0.090407 -0.06776427 0.009635065
-0.017946884 -0.03856584 0.1653099 0.052973323 -0.009690155 0.08637481 -0.057684936 0.052070104
00000000: 6cb9 efbc 6b01 c1bc ef8e 5dbd 899f d83c
00000010: baa2 f0bc 0add 783d ca62 19bc ff6f 45bd
00000020: be8f 113d 1030 8dbd a83e 31bd 0067 c9bc
00000030: 895c b23d 4518 5c3d 6d5a 69bd 4953 503d
00000040: 2bea 233d 0537 6c3c 36b1 653d d4ae 2cbd
00000050: 02f6 06bd 9e3e 243d feee 3c3d a5a2 99bd
00000060: 023f 2fbd 78bc da3b 98fd 59ba a6b1 17bc
00000070: 4c5e 94bb e4dc 893c a558 243d 6fa4 8f3d
00000080: e324 1c3d 9619 fdbc 1a6f 58bd e3fa 133c
00000090: cff8 ea3d 90cd d5bc 630c cc3d a367 7bbd
000000a0: c10b 98ba c308 ee3c 8070 2cbd 56d3 663d
000000b0: 6991 c53d c5d4 223d 640f 59bd 540a 6dbc
000000c0: 33e4 1d3c d82a 303d d2a7 ce3c 6a8a 793d
000000d0: 4e12 0d3e 3847 35bd 2752 a83d 0874 9a3d
000000e0: daa4 34bc fe9a 35bc 27e6 333b d96e d7bd
000000f0: 83ea 933d 127f 6c3d af26 7e3d b245 833c
00000100: 61b6 813c 5983 dd3c 686b 84bd 43df c13d
00000110: 5389 6dbd 0649 fbbd 9472 5cbd 68cd 583d
00000120: c95e 243d 8efd 26bd 233b 123d 948c 18bd
00000130: ad5f f9bc f62b af3d 0094 9ebc cf51 9bbc
00000140: 80de af3d c591 4b3a f955 903c 17e2 24bd
00000150: 8720 a13d 8545 26bd b998 083c ce07 953c
00000160: 9397 d2bd 7e39 3a3b 995b 3cbc 5b8f 783d
00000170: 78ad bd3d 6c5f 94bd f1f1 863d e9b9 353d
00000180: ffc4 313d 3e8c 563d 44d0 703b 1755 9e3d
00000190: 1776 043d 3002 61bd cabf a13d 1251 a33c
000001a0: e483 8d3d e937 9f3c c695 a63d 1659 72bd
000001b0: 9fbb 42bc acef 96bd 632b f23c e003 6c39
000001c0: 7480 3b3d ab6e fd3c 3dd6 32bd 8015 1b3d
000001d0: 3b7b 3e3c 4e27 b93d fec7 8abd 64dc 1d3c
000001e0: 5805 93bc 37f7 1dbd 0047 293e 8efa 583d
000001f0: 75c3 1ebc 47e5 b03d 0a47 6cbd 7647 553d
