LunarLander/weights/reinforce_lunar_lander_best_v3.pth (torch, 6318 bytes, 6 tensors)

net.0.weight f4 [16, 8]
000000 b3 68 a9 3e 4c 6a ac bd 2f 9b f6 3e f4 82 c7 3d
       0.33087692 -0.08418712 0.4816527 0.09741774
000010 b8 ef ab bf 3a 19 d4 be 2d c0 28 be 09 67 9e be
       -1.3432531 -0.41425496 -0.16479559 -0.30937985
000020 da 4f 12 3f 52 08 33 be c4 83 02 3f 5e 93 3b bf
       0.57153094 -0.17483643 0.5098231 -0.7327174
000030 bf cc 89 bf 40 ae fe be e6 3a 0c be 27 c0 25 be
       -1.0765609 -0.49742317 -0.13694343 -0.16186582
000040 7d ce 05 3d b3 bb f1 3e 08 ca 93 bd 1c 8a 69 3f
       0.032667626 0.47213516 -0.07216269 0.91226363
000050 b7 e2 e4 3e b6 7b 00 3f 47 76 f1 3d 79 c2 31 be
       0.4470422 0.5018877 0.11790138 -0.17359342
000060 4b bf 04 3f 23 b5 a0 be f7 c6 ee 3e fe 15 15 bf
       0.5185439 -0.31388196 0.46636173 -0.5823668
000070 b0 4c 8b bf b5 a2 6e be 6a 32 36 be e3 a3 26 be
       -1.0882778 -0.23304255 -0.17792669 -0.16273455
000080 af 32 7b 3e cb cb 8c 3d 40 76 1e 3f d6 28 62 bd
       0.24531053 0.06874808 0.61899185 -0.055214725
000090 a5 76 8d bf ba 24 a4 be 11 16 8a bd 69 99 d0 bc
       -1.1051832 -0.3205927 -0.0674249 -0.025463777
0000a0 4b eb ea 3e ed 91 82 3e 40 56 df 3e 3c 6b a4 3f
       0.4588264 0.25501958 0.4362049 1.2845225
0000b0 fe 0d 18 bf 16 76 6d be 18 41 c0 3b c4 c0 ad 3e
       -0.5939635 -0.23189577 0.005867135 0.3393613
0000c0 9c 56 a9 bd bd 2e 18 3e 03 03 df be 66 18 40 3f
       -0.082684726 0.14861579 -0.43556985 0.7503723
0000d0 d0 b7 3b 3f ae c3 12 3f e6 71 e8 3a 29 c0 83 be
       0.7332735 0.57329834 0.001773414 -0.25732544
0000e0 80 0f 2e be bc 7d 88 be aa 7c 03 3e 24 5c 9e bf
       -0.169981 -0.26658428 0.12840524 -1.2371869
0000f0 27 be 8b be 8b 9a 05 be ea 4a e8 bd b5 e7 c6 3d
       -0.27293512 -0.13047235 -0.11342414 0.09712163
000100 7e ec de bd cd 47 53 be bd 96 32 bf 0b d8 4f bf
       -0.10884951 -0.20632859 -0.6976126 -0.8118903
000110 cb 6e 8a 3f a9 db 48 3e eb 08 cf 3d ef 1d c4 3b
       1.0815061 0.19615044 0.10109123 0.0059850137
000120 8b fd 19 3f 06 b5 e3 bc 68 6e e8 3e a9 18 bf 3e
       0.601525 -0.02779628 0.45396733 0.37323502
000130 dc 1e b3 bf 20 51 c0 be 13 64 d4 be 63 b7 15 be
       -1.3993793 -0.37561893 -0.414826 -0.14620738
000140 76 ad 22 bf 7b 23 3e bd ff 04 f8 be fe df bb be
       -0.6354593 -0.046420556 -0.48441312 -0.3669433
000150 fb bd 49 3f 38 d5 e2 3e f7 9c b9 bd f1 8d a4 bd
       0.7880551 0.44303298 -0.09063142 -0.08034886
000160 a3 7c 38 3e 43 c3 29 3e cd 2c 34 3f 4e e7 ea 3e
       0.18016295 0.16578393 0.7038086 0.45879596
000170 41 1c 32 bf e1 39 c2 be 03 e9 97 3d ca 92 bf 3d
       -0.6957436 -0.37934783 0.0741749 0.0935417
000180 b4 51 fa 3e e5 0f 78 3d 56 70 0c 3f 54 3d 49 3f
       0.4889046 0.060562033 0.5485891 0.78609204
000190 07 42 72 bf d4 fa ae be 9c fd a0 be e1 b2 18 3e
       -0.94632 -0.34175742 -0.3144349 0.14911987
0001a0 8b b2 ef be 54 79 69 3e bd da e7 be a7 cf ed 3e
       -0.46815905 0.2280019 -0.45284072 0.4644749
0001b0 df 91 47 3f 07 27 f1 3e 25 7e 26 be 28 9c 42 be
       0.77956957 0.47100088 -0.16259058 -0.19004881
0001c0 b1 28 00 bf ff 7d 30 3c 41 c8 06 bf 15 65 02 bf
       -0.5006209 0.010772227 -0.52649313 -0.5093549
0001d0 6c a7 a4 3f 80 7d 76 3d 54 18 88 3e 81 33 0a 3d
       1.2863593 0.06017828 0.2658106 0.033740524
0001e0 68 6e 47 3e 30 22 a4 3d d1 b4 5a 3e b1 92 50 3f
       0.1947571 0.08014333 0.21358038 0.81473833
0001f0 ff e7 cf be 59 02 4c 3e 0f d9 1f 3e f2 39 21 3e
       -0.40606686 0.1992277 0.15610145 0.1574476

net.0.bias f4 [16]
000000 a5 78 d4 3d df c6 17 be 44 ca 80 bd 69 a8 b5 3d
       0.103745736 -0.14821957 -0.06288579 0.08870012
000010 bb d7 ac bd ca f7 93 3d 3d a0 ac 3d 54 fa 78 bd
       -0.08439585 0.072249964 0.084290005 -0.060785607
000020 a4 43 18 bd 96 08 1c 3e 8d 21 f8 bb 4d 96 64 bd
       -0.037173882 0.1523765 -0.007572359 -0.0558074
000030 cf f3 2b 3e 21 20 b0 3d 67 7c 2d be 24 26 e1 3d
       0.16792224 0.08599878 -0.16941987 0.10993603

net.2.weight f4 [32, 16]
000000 ed a9 f3 3d 72 de bc 3c b0 1e 7d 3d 10 e7 c1 bb
       0.11897645 0.023055289 0.061796844 -0.0059174374
000010 88 b7 7b 3e d7 87 b9 be fa 77 8a 3e 1f 5e 98 bd
       0.2458173 -0.3623645 0.2704466 -0.07439827
000020 55 c5 50 be 0d b2 37 3e 59 28 d7 3e c9 5b e5 3d
       -0.20387776 0.17939015 0.4202297 0.11199147
000030 9c 02 89 be 6a 2d a3 3e d8 c3 5b be a5 28 87 bd
       -0.26759803 0.31870586 -0.21461427 -0.06599549
000040 6a e2 64 be c2 30 25 3f d7 a5 04 bf 17 ce 95 3e
       -0.22351995 0.64527524 -0.5181555 0.29258797
000050 2e 3e b6 be 80 2e 77 bf c8 d6 76 bc 04 92 df 3e
       -0.35594314 -0.9655533 -0.015065856 0.4366609
000060 b4 ee 68 3f 94 11 21 bf a1 26 97 3e 26 cd a6 be
       0.9098923 -0.6291745 0.2952166 -0.3257839
000070 ef 04 10 bf 9c 05 8b bc 4e c8 bf 3e d6 bb 2d be
       -0.5625753 -0.016970448 0.37457508 -0.16966185
000080 af bb b1 3e 90 7b e8 3d d4 f4 d7 3d 7d 32 52 3e
       0.34713504 0.11351693 0.10544744 0.20527072
000090 48 fb b6 3d 5e 58 19 3f 47 87 27 be 6a 6b 93 be
       0.08934647 0.5990046 -0.16360198 -0.28792888
0000a0 45 f5 11 bf a7 23 59 3f 03 d8 3f be 22 f2 77 3c
       -0.57014877 0.84820026 -0.18734746 0.015133413
0000b0 49 7a 58 3f ae 93 35 be d4 db 6c bf ed 4f bd 3e
       0.8456159 -0.17732117 -0.9252293 0.3697504
0000c0 dc ee ec 3e d0 e6 9c bd 40 1b 40 3e 2e 19 c3 3d
       0.46275985 -0.076612115 0.18760395 0.09526287
0000d0 e0 d9 80 3e d6 21 21 3f cd db 5b 3e 46 da c2 be
       0.25166225 0.62942255 0.21470566 -0.38057154
0000e0 90 13 83 bf 5c 9f 2f 3f 27 bd e5 be 11 f7 c6 3d
       -1.0240345 0.6860254 -0.44870874 0.09715093
0000f0 de dd 1e 3f aa a6 43 3e 60 39 45 bf c8 b4 a6 3e
       0.6205729 0.19106546 -0.7704067 0.325598
000100 1b 9b 0e be c9 88 10 3d c5 04 ac bb 2b be 6e 3e
       -0.13926356 0.0352867 -0.005249592 0.23314731
000110 d3 54 59 3e d6 47 b2 bd 54 38 a7 be 7a ab d2 3c
       0.21223764 -0.08705108 -0.32660162 0.025716532
000120 d2 c6 c9 3e 04 7b ba bd bf 16 5c bd 60 03 e1 bd
       0.394095 -0.091054946 -0.05373263 -0.10986972
000130 02 9e 9b be 65 ea a4 bd e0 8a 3d 3d 65 4a ae bd
       -0.30393988 -0.0805252 0.04627502 -0.085102834
000140 3a 3b 2d bf 82 e1 ee be 0d 8f 93 3d 04 6e fd be
       -0.676685 -0.46656424 0.07205019 -0.49497998
000150 75 0a 06 be 0a 3f 76 be fe 14 2d bd f3 ff f7 3b
       -0.13089927 -0.24047485 -0.042256348 0.0075683533
000160 8a 69 de 3e 42 43 07 bf 6b b3 81 3e 70 4b 46 be
       0.43439895 -0.52837 0.25332198 -0.19364715
000170 50 1e 5c bf de c5 5a 3d 61 d3 79 3f 70 cd c2 be
       -0.85983753 0.053411357 0.97588164 -0.3804736
000180 ae f9 ef 3e 1d 10 e5 3e 8e 11 f5 be d6 e6 44 3f
       0.46870178 0.44738856 -0.47864956 0.7691473
000190 91 f9 09 3e 62 81 cb 3e c9 59 b3 be df 39 97 bc
       0.13474108 0.3974715 -0.35029438 -0.018460212
0001a0 a4 2d 76 be 4b 42 1a 3f 12 34 cf be e1 a4 e2 3d
       -0.24040848 0.60257405 -0.40469414 0.110666044
0001b0 d5 1f c2 3e ef e5 99 be 02 d2 1f bf a7 d5 b4 3e
       0.3791491 -0.30058238 -0.6242982 0.35319254
0001c0 98 e5 e1 be ac 91 cb be b8 68 1d 3f 44 82 1b bf
       -0.4412048 -0.39759576 0.61487913 -0.60745645
0001d0 8f d2 05 be 59 b7 c8 3e 91 72 6a 3e b8 a8 d1 be
       -0.13068603 0.39202383 0.22895266 -0.40949035
0001e0 13 85 2e be 50 a2 a8 be bb dd 31 be 3b b7 18 3e
       -0.17042951 -0.32936335 -0.1736974 0.14913647
0001f0 dd b0 02 3e 7c 5d 75 3d 00 f4 df 3d a6 35 72 bd
       0.1276278 0.059903607 0.10935211 -0.059133194
000200 86 93 39 3f 31 b7 94 3e a8 fb ee bd 25 cf 33 3f
       0.7249073 0.29046014 -0.11669093 0.7023795
000210 bc f4 6e 3e e8 a3 8e 3e 92 32 b8 bd 20 af 35 3d
       0.23335546 0.27859426 -0.089940205 0.044356465
000220 18 c6 ee be 39 da 2a 3f 5e 83 0b be c2 50 dc 3d
       -0.4663551 0.6673923 -0.13624331 0.10757591
000230 4e 34 0a 3f ef db b3 be fe 71 78 bf a2 d0 a1 3e
       0.5398606 -0.35128734 -0.9704894 0.31604487
000240 8c d9 62 3e b9 b6 8d be a0 bb 0f 3e f3 4a 89 3d
       0.221533 -0.2767847 0.14036417 0.067037486
000250 9c e1 20 3e 90 36 55 3f 16 5a 1a 3e 77 c6 0f bf
       0.15711063 0.8328638 0.15073428 -0.5616221
000260 e8 de 4a bf a2 e7 0d 3f c3 30 49 be 63 24 c5 3e
       -0.7924638 0.5543157 -0.19647507 0.38504323
000270 e9 6a 42 3f 47 88 01 be 79 1f 24 bf f3 07 97 3e
       0.7594438 -0.12649642 -0.64110523 0.29498252
000280 2b 47 21 bf d7 18 ae be a5 22 b3 3e c6 83 e0 be
       -0.6299922 -0.34003326 0.3498737 -0.43850535
000290 b2 05 ba be 2c ae de be a3 6d 3c 3e 28 96 4b be
       -0.3633247 -0.43492258 0.18401198 -0.19881499
0002a0 31 dd a0 3e 8a 50 4e bf 54 9d f1 3e a9 7c f0 bd
       0.31418756 -0.8059164 0.47190344 -0.11742527
0002b0 68 18 47 bf a3 ca ab 3e cb f2 31 3f f2 b4 01 be
       -0.77771616 0.33553037 0.695111 -0.12666681
0002c0 32 d0 aa bd 35 ea ca 3e 06 ed c6 be 8e d2 0d 3f
       -0.08340491 0.3963181 -0.3885271 0.55399406
0002d0 00 85 df bc 7e a1 50 bf 3a eb c5 be ee dd 4f 3f
       -0.027285099 -0.8149642 -0.38656026 0.8119801
0002e0 5b b2 be 3e b3 d1 fb bd e1 bc 1f be c4 97 85 be
       0.3724545 -0.12295856 -0.15599395 -0.2609235
0002f0 8e a1 8b be f6 46 75 be bd 93 7a 3e 91 8a 12 be
       -0.27271694 -0.2395285 0.2447042 -0.14310671
000300 ad d9 80 3e b8 01 0b 3f ab 30 f6 be 48 93 29 3f
       0.25166073 0.542995 -0.48084006 0.6624036
000310 15 4b fd 3d 06 7e 02 bf f4 06 82 be a5 1b 04 3f
       0.123678364 -0.50973547 -0.2539593 0.5160468
000320 2f 54 1a bd f6 ae ba 3e 70 86 ea bd 50 a0 3f be
       -0.03767794 0.3646161 -0.11451423 -0.18713498
000330 29 5b 03 be e8 49 1b be f3 e6 ba be 8e 60 aa bd
       -0.12827744 -0.15164912 -0.36504325 -0.083191976
000340 91 c3 29 3f d8 8c b7 3e b4 f8 ec bd 1a a5 2b 3f
       0.66314036 0.35849643 -0.11570874 0.670488
000350 f7 4f 95 3e a0 51 dc 3e 42 04 39 be b4 07 78 3e
       0.2916257 0.43031025 -0.1806803 0.24221689
000360 8e 2e 09 be 53 68 2d 3f 34 9b f2 be 9a 87 54 3e
       -0.13396665 0.6773731 -0.47384036 0.20754853
000370 e3 41 37 3f 66 c2 46 be ea d7 21 bf c8 7d b3 3e
       0.7158491 -0.19410095 -0.63220084 0.350569
000380 79 04 e4 3e 0f 26 19 bd 3f 89 f7 bd 49 72 a7 3e
       0.44534662 -0.03738981 -0.120867245 0.3270438
000390 13 91 3d 3e 1a bd 3c 3f 3b d0 74 3e 74 70 4d bd
       0.18512373 0.73726046 0.23907559 -0.05015607
0003a0 80 3a 15 bf fd 10 48 3f 1d 09 3f be 6e 3f 8b 3e
       -0.5829239 0.7815092 -0.1865582 0.2719683
0003b0 d4 18 14 3f 36 57 0b bd 75 04 5a bf 4b 04 17 3d
       0.57850385 -0.034018718 -0.8516305 0.03686933
0003c0 cc 25 80 3e fc 40 f8 3e 6a ac c8 be 17 a5 1d 3f
       0.25028837 0.4848708 -0.39194041 0.6158003
0003d0 36 4d a0 3e c7 24 20 3e 82 72 d6 3d ee e0 e0 3d
       0.31308907 0.1563903 0.104710594 0.10980402
0003e0 f7 e4 5c be 61 2b 84 3e 95 a0 0f bf 56 a4 64 3e
       -0.21571718 0.25814345 -0.56104404 0.22328314
0003f0 42 54 8c 3e 53 1a 1b bf 5c 0d 4f be 99 21 bf 3b
       0.27408034 -0.6058704 -0.2021994 0.0058328626

net.2.bias f4 [32]
000000 a7 65 1e be 97 c2 b1 3d 35 46 80 bd f6 8b 59 bd
       -0.15468465 0.08679693 -0.06263391 -0.053111993
000010 8e 57 48 bd a7 6b c5 3c 72 32 7e 3d b4 22 ce 3d
       -0.048911624 0.024099184 0.062059827 0.10065213
000020 b7 35 6e bd cf 82 8c bd 0a 3f 94 3c bf 6e 06 be
       -0.058156695 -0.06860887 0.018096466 -0.13128184
000030 d4 3c ea bd c4 7f 2b 3e f0 b3 44 be 52 b3 26 3e
       -0.11437383 0.16747957 -0.19209266 0.16279343
000040 d5 c4 e9 bd 16 3c 93 3c a6 cd 4d bd 57 df 1a bd
       -0.11414496 0.017972987 -0.05024495 -0.03781065
000050 12 6f 52 3d 32 c1 4b bc c0 12 95 3b 16 22 d0 bc
       0.051375456 -0.012436198 0.0045493543 -0.025406878
000060 d0 82 06 be 26 f6 97 bd 8a f8 aa bd b5 ed 6d be
       -0.13135839 -0.07419996 -0.08348186 -0.2323521
000070 c8 bc 01 3e ad 9c 94 3d 3f 55 eb bc 98 82 cc 3d
       0.1266967 0.07256446 -0.028727172 0.09985846

net.4.weight f4 [4, 32]
000000 e8 c1 b7 3e fb c9 81 bd 65 c0 f6 bd 1d a7 ee 3d
       0.35890126 -0.06337353 -0.12048415 0.11652968
000010 ef fa f0 bd d9 09 52 be b9 54 8e be 7a fa 5a be
       -0.11766612 -0.20511569 -0.27799013 -0.21384612
000020 69 90 72 3e b9 44 e0 bd 64 7f ae 3b 07 81 80 bd
       0.236879 -0.10950608 0.0053252447 -0.0627461
000030 68 15 47 3e 3b 28 95 be f4 5a 7b 3e 56 d6 9c be
       0.1944176 -0.29132256 0.24546415 -0.30632275
000040 33 72 72 3e ba 7a 29 3e 46 be ef 3c 40 18 20 be
       0.23676376 0.16550723 0.029265534 -0.1563425
000050 b8 c1 3a bc 55 11 80 3d 5d 21 52 be a7 4f 40 3c
       -0.011398725 0.06253306 -0.2052054 0.011737741
000060 ac 96 05 3e 4f 26 77 3e 54 e4 7d 3e 85 f6 88 3e
       0.13045758 0.24135707 0.24794132 0.2675058
000070 44 ca b5 3d 47 c6 1d be 52 25 00 3d f7 5e 5b bd
       0.0887647 -0.15407668 0.03128559 -0.053557362
000080 6e bb 45 be ec ef 12 bf 20 07 55 3f d3 a4 39 3f
       -0.1930978 -0.5739734 0.83213997 0.72517127
000090 05 b7 ef bd 42 ae f1 be b4 c3 bc 3e 47 ec 5e 3e
       -0.1170483 -0.4720326 0.3686806 0.2176982
0000a0 0c 24 f6 3e a2 37 41 3f bb 33 11 bf 68 98 b4 be
       0.48074377 0.75475514 -0.5671956 -0.35272527
0000b0 6e f2 7e be 61 43 d5 3e e0 8c d5 3e 92 31 09 3e
       -0.24897167 0.4165297 0.41709042 0.13397816
0000c0 7d 08 5c 3f 54 cc 6e 3f fb 82 bd be de 9c 70 be
       0.8595045 0.9328053 -0.37013993 -0.2349734
0000d0 ca 86 86 be 54 fd 1e bf 67 ec 91 be d7 b6 26 3f
       -0.2627471 -0.621053 -0.28500673 0.6512274
0000e0 97 a2 32 bd b0 5f fd 3e 44 7f 39 be 3d 47 f2 be
       -0.04361209 0.49487066 -0.18114954 -0.47319975
0000f0 21 41 58 3d 50 be 65 bf 63 21 41 be df 69 51 bf
       0.052796487 -0.8974352 -0.18860392 -0.8180217
000100 87 67 2e be 40 de cd 3e f9 a9 b6 bc af 5a 49 be
       -0.1703168 0.40208626 -0.022297846 -0.196635
000110 91 b1 f3 3c a9 64 48 be e8 e8 a1 3e 05 13 c1 be
       0.029747756 -0.19569649 0.31623006 -0.37709823
000120 fc fd 95 3e 49 a3 a0 be 1e 90 8c be 52 16 19 3f
       0.29295337 -0.31374577 -0.27453703 0.59799683
000130 75 41 c3 3e 26 ac 62 3e 55 b3 c5 bd 32 68 97 3e
       0.38135877 0.22135982 -0.096533455 0.29571682
000140 8e cb 00 bf 77 0a 04 bf ce 70 e9 be cf 78 dd be
       -0.503106 -0.5157847 -0.45593876 -0.43256232
000150 8a bd 2c bf 25 23 ef 3c e8 36 06 bf b0 ba ce 3d
       -0.67476714 0.029191563 -0.5242753 0.100942016
000160 90 63 14 3f 16 dc ce be dd ab 50 3e cb 20 28 3d
       0.5796442 -0.40402287 0.2037806 0.0410469
000170 af f4 1f bf 33 27 48 3b 25 96 f9 be dc c1 be 3d
       -0.6248273 0.0030540943 -0.48747364 0.093143195
000180 87 3e 11 be 22 f3 ba 3d 39 e1 09 bf 2b b6 c5 be
       -0.14184009 0.09128405 -0.5385929 -0.38615546
000190 9e 67 bf 3d 08 42 2f 3f f6 37 5b bf ad bf 31 3e
       0.09345935 0.6846013 -0.85632265 0.17358275
0001a0 24 9e 44 bf 8c 4c 57 be cf b3 77 3f a9 4b 02 3c
       -0.76803803 -0.21025294 0.9675874 0.007952609
0001b0 d9 f4 67 be 67 ae 2e bf 48 9f ec be f5 bb 76 be
       -0.22651996 -0.68234867 -0.46215272 -0.24095137
0001c0 4f e0 99 be 96 5c 34 be 14 8e 8b 3f 4e 53 e8 3e
       -0.30053946 -0.17613444 1.0902734 0.45376056
0001d0 92 5e 5e 3f aa 4f ea 3e 0d 51 53 3f d1 cb 4a bf
       0.8686305 0.45763904 0.8254555 -0.7921725
0001e0 58 7e 26 bf 3e 54 40 3c 1b cf d8 bd d0 ab 97 3e
       -0.65036535 0.011738835 -0.10586377 0.2962327
0001f0 dc 6b 15 3f 0e 99 32 3f 75 55 06 3f 25 21 ad 3e
       0.58367705 0.6976479 0.5247415 0.3381435

net.4.bias f4 [4]
000000 b9 d3 14 be f3 39 1e bc c6 c9 18 bd 62 61 c0 3d
       -0.14533891 -0.009657371 -0.0373018 0.09393574
